{
  "nodes": [
    {
      "op": "null", 
      "name": "data", 
      "inputs": []
    }, 
    {
      "op": "null", 
      "name": "conv0_weight", 
      "attrs": {
        "__dtype__": "0", 
        "__lr_mult__": "1.0", 
        "__shape__": "(64, 0, 3, 3)", 
        "__storage_type__": "0", 
        "__wd_mult__": "1.0"
      }, 
      "inputs": []
    }, 
    {
      "op": "Convolution", 
      "name": "conv0_fwd", 
      "attrs": {
        "dilate": "(1, 1)", 
        "kernel": "(3, 3)", 
        "layout": "NCHW", 
        "no_bias": "True", 
        "num_filter": "64", 
        "num_group": "1", 
        "pad": "(1, 1)", 
        "stride": "(1, 1)"
      }, 
      "inputs": [[0, 0, 0], [1, 0, 0]]
    }, 
    {
      "op": "null", 
      "name": "stage1_batchnorm0_gamma", 
      "attrs": {
        "__dtype__": "0", 
        "__init__": "ones", 
        "__lr_mult__": "1.0", 
        "__shape__": "(0,)", 
        "__storage_type__": "0", 
        "__wd_mult__": "1.0"
      }, 
      "inputs": []
    }, 
    {
      "op": "null", 
      "name": "stage1_batchnorm0_beta", 
      "attrs": {
        "__dtype__": "0", 
        "__init__": "zeros", 
        "__lr_mult__": "1.0", 
        "__shape__": "(0,)", 
        "__storage_type__": "0", 
        "__wd_mult__": "1.0"
      }, 
      "inputs": []
    }, 
    {
      "op": "null", 
      "name": "stage1_batchnorm0_running_mean", 
      "attrs": {
        "__dtype__": "0", 
        "__init__": "zeros", 
        "__lr_mult__": "1.0", 
        "__shape__": "(0,)", 
        "__storage_type__": "0", 
        "__wd_mult__": "1.0"
      }, 
      "inputs": []
    }, 
    {
      "op": "null", 
      "name": "stage1_batchnorm0_running_var", 
      "attrs": {
        "__dtype__": "0", 
        "__init__": "ones", 
        "__lr_mult__": "1.0", 
        "__shape__": "(0,)", 
        "__storage_type__": "0", 
        "__wd_mult__": "1.0"
      }, 
      "inputs": []
    }, 
    {
      "op": "BatchNorm", 
      "name": "stage1_batchnorm0_fwd", 
      "attrs": {
        "axis": "1", 
        "eps": "1e-05", 
        "fix_gamma": "False", 
        "momentum": "0.9", 
        "use_global_stats": "False"
      }, 
      "inputs": [[2, 0, 0], [3, 0, 0], [4, 0, 0], [5, 0, 7], [6, 0, 7]]
    }, 
    {
      "op": "_contrib_gradcancel", 
      "name": "stage1_qactivation0_gradcancel0", 
      "attrs": {"threshold": "1.0"}, 
      "inputs": [[7, 0, 0]]
    }, 
    {
      "op": "det_sign", 
      "name": "stage1_qactivation0_det_sign0", 
      "inputs": [[8, 0, 0]]
    }, 
    {
      "op": "null", 
      "name": "stage1_qconv0_weight", 
      "attrs": {
        "__dtype__": "0", 
        "__lr_mult__": "1.0", 
        "__shape__": "(64, 0, 1, 1)", 
        "__storage_type__": "0", 
        "__wd_mult__": "0.0"
      }, 
      "inputs": []
    }, 
    {
      "op": "det_sign", 
      "name": "stage1_qconv0_det_sign0", 
      "inputs": [[10, 0, 0]]
    }, 
    {
      "op": "Convolution", 
      "name": "stage1_qconv0_fwd", 
      "attrs": {
        "dilate": "(1, 1)", 
        "kernel": "(1, 1)", 
        "layout": "NCHW", 
        "no_bias": "True", 
        "num_filter": "64", 
        "num_group": "1", 
        "pad": "(0, 0)", 
        "stride": "(1, 1)"
      }, 
      "inputs": [[9, 0, 0], [11, 0, 0]]
    }, 
    {
      "op": "_plus_scalar", 
      "name": "stage1_qconv0__plusscalar0", 
      "attrs": {"scalar": "64"}, 
      "inputs": [[12, 0, 0]]
    }, 
    {
      "op": "_div_scalar", 
      "name": "stage1_qconv0__divscalar0", 
      "attrs": {"scalar": "2"}, 
      "inputs": [[13, 0, 0]]
    }, 
    {
      "op": "Concat", 
      "name": "stage1_denseblockenas0_concat0", 
      "attrs": {
        "dim": "1", 
        "num_args": "2"
      }, 
      "inputs": [[2, 0, 0], [14, 0, 0]]
    }, 
    {
      "op": "slice_axis", 
      "name": "hybridsequential6_slice_axis0", 
      "attrs": {
        "axis": "1", 
        "begin": "0", 
        "end": "64"
      }, 
      "inputs": [[15, 0, 0]]
    }, 
    {
      "op": "slice_axis", 
      "name": "hybridsequential6_slice_axis1", 
      "attrs": {
        "axis": "1", 
        "begin": "64", 
        "end": "128"
      }, 
      "inputs": [[15, 0, 0]]
    }, 
    {
      "op": "null", 
      "name": "stage1_batchnorm2_gamma", 
      "attrs": {
        "__dtype__": "0", 
        "__init__": "ones", 
        "__lr_mult__": "1.0", 
        "__shape__": "(0,)", 
        "__storage_type__": "0", 
        "__wd_mult__": "1.0"
      }, 
      "inputs": []
    }, 
    {
      "op": "null", 
      "name": "stage1_batchnorm2_beta", 
      "attrs": {
        "__dtype__": "0", 
        "__init__": "zeros", 
        "__lr_mult__": "1.0", 
        "__shape__": "(0,)", 
        "__storage_type__": "0", 
        "__wd_mult__": "1.0"
      }, 
      "inputs": []
    }, 
    {
      "op": "null", 
      "name": "stage1_batchnorm2_running_mean", 
      "attrs": {
        "__dtype__": "0", 
        "__init__": "zeros", 
        "__lr_mult__": "1.0", 
        "__shape__": "(0,)", 
        "__storage_type__": "0", 
        "__wd_mult__": "1.0"
      }, 
      "inputs": []
    }, 
    {
      "op": "null", 
      "name": "stage1_batchnorm2_running_var", 
      "attrs": {
        "__dtype__": "0", 
        "__init__": "ones", 
        "__lr_mult__": "1.0", 
        "__shape__": "(0,)", 
        "__storage_type__": "0", 
        "__wd_mult__": "1.0"
      }, 
      "inputs": []
    }, 
    {
      "op": "BatchNorm", 
      "name": "stage1_batchnorm2_fwd", 
      "attrs": {
        "axis": "1", 
        "eps": "1e-05", 
        "fix_gamma": "False", 
        "momentum": "0.9", 
        "use_global_stats": "False"
      }, 
      "inputs": [[15, 0, 0], [18, 0, 0], [19, 0, 0], [20, 0, 7], [21, 0, 7]]
    }, 
    {
      "op": "_contrib_gradcancel", 
      "name": "stage1_qactivation2_gradcancel0", 
      "attrs": {"threshold": "1.0"}, 
      "inputs": [[22, 0, 0]]
    }, 
    {
      "op": "det_sign", 
      "name": "stage1_qactivation2_det_sign0", 
      "inputs": [[23, 0, 0]]
    }, 
    {
      "op": "Pad", 
      "name": "stage1_qconv2_pad0", 
      "attrs": {
        "constant_value": "-1", 
        "mode": "constant", 
        "pad_width": "[0, 0, 0, 0, 1, 1, 1, 1]"
      }, 
      "inputs": [[24, 0, 0]]
    }, 
    {
      "op": "null", 
      "name": "stage1_qconv2_weight", 
      "attrs": {
        "__dtype__": "0", 
        "__lr_mult__": "1.0", 
        "__shape__": "(64, 128, 3, 3)", 
        "__storage_type__": "0", 
        "__wd_mult__": "0.0"
      }, 
      "inputs": []
    }, 
    {
      "op": "det_sign", 
      "name": "stage1_qconv2_det_sign0", 
      "inputs": [[26, 0, 0]]
    }, 
    {
      "op": "Convolution", 
      "name": "stage1_qconv2_fwd", 
      "attrs": {
        "dilate": "(1, 1)", 
        "kernel": "(3, 3)", 
        "layout": "NCHW", 
        "no_bias": "True", 
        "num_filter": "64", 
        "num_group": "1", 
        "pad": "(0, 0)", 
        "stride": "(1, 1)"
      }, 
      "inputs": [[25, 0, 0], [27, 0, 0]]
    }, 
    {
      "op": "_plus_scalar", 
      "name": "stage1_qconv2__plusscalar0", 
      "attrs": {"scalar": "1152"}, 
      "inputs": [[28, 0, 0]]
    }, 
    {
      "op": "_div_scalar", 
      "name": "stage1_qconv2__divscalar0", 
      "attrs": {"scalar": "2"}, 
      "inputs": [[29, 0, 0]]
    }, 
    {
      "op": "elemwise_add", 
      "name": "hybridsequential6__plus0", 
      "inputs": [[17, 0, 0], [30, 0, 0]]
    }, 
    {
      "op": "Concat", 
      "name": "hybridsequential6_concat0", 
      "attrs": {
        "dim": "1", 
        "num_args": "2"
      }, 
      "inputs": [[16, 0, 0], [31, 0, 0]]
    }, 
    {
      "op": "null", 
      "name": "stage1_batchnorm3_gamma", 
      "attrs": {
        "__dtype__": "0", 
        "__init__": "ones", 
        "__lr_mult__": "1.0", 
        "__shape__": "(0,)", 
        "__storage_type__": "0", 
        "__wd_mult__": "1.0"
      }, 
      "inputs": []
    }, 
    {
      "op": "null", 
      "name": "stage1_batchnorm3_beta", 
      "attrs": {
        "__dtype__": "0", 
        "__init__": "zeros", 
        "__lr_mult__": "1.0", 
        "__shape__": "(0,)", 
        "__storage_type__": "0", 
        "__wd_mult__": "1.0"
      }, 
      "inputs": []
    }, 
    {
      "op": "null", 
      "name": "stage1_batchnorm3_running_mean", 
      "attrs": {
        "__dtype__": "0", 
        "__init__": "zeros", 
        "__lr_mult__": "1.0", 
        "__shape__": "(0,)", 
        "__storage_type__": "0", 
        "__wd_mult__": "1.0"
      }, 
      "inputs": []
    }, 
    {
      "op": "null", 
      "name": "stage1_batchnorm3_running_var", 
      "attrs": {
        "__dtype__": "0", 
        "__init__": "ones", 
        "__lr_mult__": "1.0", 
        "__shape__": "(0,)", 
        "__storage_type__": "0", 
        "__wd_mult__": "1.0"
      }, 
      "inputs": []
    }, 
    {
      "op": "BatchNorm", 
      "name": "stage1_batchnorm3_fwd", 
      "attrs": {
        "axis": "1", 
        "eps": "1e-05", 
        "fix_gamma": "False", 
        "momentum": "0.9", 
        "use_global_stats": "False"
      }, 
      "inputs": [[32, 0, 0], [33, 0, 0], [34, 0, 0], [35, 0, 7], [36, 0, 7]]
    }, 
    {
      "op": "_contrib_gradcancel", 
      "name": "stage1_qactivation3_gradcancel0", 
      "attrs": {"threshold": "1.0"}, 
      "inputs": [[37, 0, 0]]
    }, 
    {
      "op": "det_sign", 
      "name": "stage1_qactivation3_det_sign0", 
      "inputs": [[38, 0, 0]]
    }, 
    {
      "op": "null", 
      "name": "stage1_qconv3_weight", 
      "attrs": {
        "__dtype__": "0", 
        "__lr_mult__": "1.0", 
        "__shape__": "(64, 0, 1, 1)", 
        "__storage_type__": "0", 
        "__wd_mult__": "0.0"
      }, 
      "inputs": []
    }, 
    {
      "op": "det_sign", 
      "name": "stage1_qconv3_det_sign0", 
      "inputs": [[40, 0, 0]]
    }, 
    {
      "op": "Convolution", 
      "name": "stage1_qconv3_fwd", 
      "attrs": {
        "dilate": "(1, 1)", 
        "kernel": "(1, 1)", 
        "layout": "NCHW", 
        "no_bias": "True", 
        "num_filter": "64", 
        "num_group": "1", 
        "pad": "(0, 0)", 
        "stride": "(1, 1)"
      }, 
      "inputs": [[39, 0, 0], [41, 0, 0]]
    }, 
    {
      "op": "_plus_scalar", 
      "name": "stage1_qconv3__plusscalar0", 
      "attrs": {"scalar": "128"}, 
      "inputs": [[42, 0, 0]]
    }, 
    {
      "op": "_div_scalar", 
      "name": "stage1_qconv3__divscalar0", 
      "attrs": {"scalar": "2"}, 
      "inputs": [[43, 0, 0]]
    }, 
    {
      "op": "Concat", 
      "name": "stage1_denseblockenas2_concat0", 
      "attrs": {
        "dim": "1", 
        "num_args": "2"
      }, 
      "inputs": [[32, 0, 0], [44, 0, 0]]
    }, 
    {
      "op": "slice_axis", 
      "name": "hybridsequential6_slice_axis2", 
      "attrs": {
        "axis": "1", 
        "begin": "0", 
        "end": "128"
      }, 
      "inputs": [[45, 0, 0]]
    }, 
    {
      "op": "slice_axis", 
      "name": "hybridsequential6_slice_axis3", 
      "attrs": {
        "axis": "1", 
        "begin": "128", 
        "end": "192"
      }, 
      "inputs": [[45, 0, 0]]
    }, 
    {
      "op": "null", 
      "name": "stage1_batchnorm5_gamma", 
      "attrs": {
        "__dtype__": "0", 
        "__init__": "ones", 
        "__lr_mult__": "1.0", 
        "__shape__": "(0,)", 
        "__storage_type__": "0", 
        "__wd_mult__": "1.0"
      }, 
      "inputs": []
    }, 
    {
      "op": "null", 
      "name": "stage1_batchnorm5_beta", 
      "attrs": {
        "__dtype__": "0", 
        "__init__": "zeros", 
        "__lr_mult__": "1.0", 
        "__shape__": "(0,)", 
        "__storage_type__": "0", 
        "__wd_mult__": "1.0"
      }, 
      "inputs": []
    }, 
    {
      "op": "null", 
      "name": "stage1_batchnorm5_running_mean", 
      "attrs": {
        "__dtype__": "0", 
        "__init__": "zeros", 
        "__lr_mult__": "1.0", 
        "__shape__": "(0,)", 
        "__storage_type__": "0", 
        "__wd_mult__": "1.0"
      }, 
      "inputs": []
    }, 
    {
      "op": "null", 
      "name": "stage1_batchnorm5_running_var", 
      "attrs": {
        "__dtype__": "0", 
        "__init__": "ones", 
        "__lr_mult__": "1.0", 
        "__shape__": "(0,)", 
        "__storage_type__": "0", 
        "__wd_mult__": "1.0"
      }, 
      "inputs": []
    }, 
    {
      "op": "BatchNorm", 
      "name": "stage1_batchnorm5_fwd", 
      "attrs": {
        "axis": "1", 
        "eps": "1e-05", 
        "fix_gamma": "False", 
        "momentum": "0.9", 
        "use_global_stats": "False"
      }, 
      "inputs": [[45, 0, 0], [48, 0, 0], [49, 0, 0], [50, 0, 7], [51, 0, 7]]
    }, 
    {
      "op": "_contrib_gradcancel", 
      "name": "stage1_qactivation5_gradcancel0", 
      "attrs": {"threshold": "1.0"}, 
      "inputs": [[52, 0, 0]]
    }, 
    {
      "op": "det_sign", 
      "name": "stage1_qactivation5_det_sign0", 
      "inputs": [[53, 0, 0]]
    }, 
    {
      "op": "Pad", 
      "name": "stage1_qconv5_pad0", 
      "attrs": {
        "constant_value": "-1", 
        "mode": "constant", 
        "pad_width": "[0, 0, 0, 0, 1, 1, 1, 1]"
      }, 
      "inputs": [[54, 0, 0]]
    }, 
    {
      "op": "null", 
      "name": "stage1_qconv5_weight", 
      "attrs": {
        "__dtype__": "0", 
        "__lr_mult__": "1.0", 
        "__shape__": "(64, 192, 3, 3)", 
        "__storage_type__": "0", 
        "__wd_mult__": "0.0"
      }, 
      "inputs": []
    }, 
    {
      "op": "det_sign", 
      "name": "stage1_qconv5_det_sign0", 
      "inputs": [[56, 0, 0]]
    }, 
    {
      "op": "Convolution", 
      "name": "stage1_qconv5_fwd", 
      "attrs": {
        "dilate": "(1, 1)", 
        "kernel": "(3, 3)", 
        "layout": "NCHW", 
        "no_bias": "True", 
        "num_filter": "64", 
        "num_group": "1", 
        "pad": "(0, 0)", 
        "stride": "(1, 1)"
      }, 
      "inputs": [[55, 0, 0], [57, 0, 0]]
    }, 
    {
      "op": "_plus_scalar", 
      "name": "stage1_qconv5__plusscalar0", 
      "attrs": {"scalar": "1728"}, 
      "inputs": [[58, 0, 0]]
    }, 
    {
      "op": "_div_scalar", 
      "name": "stage1_qconv5__divscalar0", 
      "attrs": {"scalar": "2"}, 
      "inputs": [[59, 0, 0]]
    }, 
    {
      "op": "elemwise_add", 
      "name": "hybridsequential6__plus1", 
      "inputs": [[47, 0, 0], [60, 0, 0]]
    }, 
    {
      "op": "Concat", 
      "name": "hybridsequential6_concat1", 
      "attrs": {
        "dim": "1", 
        "num_args": "2"
      }, 
      "inputs": [[46, 0, 0], [61, 0, 0]]
    }, 
    {
      "op": "null", 
      "name": "stage1_batchnorm6_gamma", 
      "attrs": {
        "__dtype__": "0", 
        "__init__": "ones", 
        "__lr_mult__": "1.0", 
        "__shape__": "(0,)", 
        "__storage_type__": "0", 
        "__wd_mult__": "1.0"
      }, 
      "inputs": []
    }, 
    {
      "op": "null", 
      "name": "stage1_batchnorm6_beta", 
      "attrs": {
        "__dtype__": "0", 
        "__init__": "zeros", 
        "__lr_mult__": "1.0", 
        "__shape__": "(0,)", 
        "__storage_type__": "0", 
        "__wd_mult__": "1.0"
      }, 
      "inputs": []
    }, 
    {
      "op": "null", 
      "name": "stage1_batchnorm6_running_mean", 
      "attrs": {
        "__dtype__": "0", 
        "__init__": "zeros", 
        "__lr_mult__": "1.0", 
        "__shape__": "(0,)", 
        "__storage_type__": "0", 
        "__wd_mult__": "1.0"
      }, 
      "inputs": []
    }, 
    {
      "op": "null", 
      "name": "stage1_batchnorm6_running_var", 
      "attrs": {
        "__dtype__": "0", 
        "__init__": "ones", 
        "__lr_mult__": "1.0", 
        "__shape__": "(0,)", 
        "__storage_type__": "0", 
        "__wd_mult__": "1.0"
      }, 
      "inputs": []
    }, 
    {
      "op": "BatchNorm", 
      "name": "stage1_batchnorm6_fwd", 
      "attrs": {
        "axis": "1", 
        "eps": "1e-05", 
        "fix_gamma": "False", 
        "momentum": "0.9", 
        "use_global_stats": "False"
      }, 
      "inputs": [[62, 0, 0], [63, 0, 0], [64, 0, 0], [65, 0, 7], [66, 0, 7]]
    }, 
    {
      "op": "_contrib_gradcancel", 
      "name": "stage1_qactivation6_gradcancel0", 
      "attrs": {"threshold": "1.0"}, 
      "inputs": [[67, 0, 0]]
    }, 
    {
      "op": "det_sign", 
      "name": "stage1_qactivation6_det_sign0", 
      "inputs": [[68, 0, 0]]
    }, 
    {
      "op": "null", 
      "name": "stage1_qconv6_weight", 
      "attrs": {
        "__dtype__": "0", 
        "__lr_mult__": "1.0", 
        "__shape__": "(64, 0, 1, 1)", 
        "__storage_type__": "0", 
        "__wd_mult__": "0.0"
      }, 
      "inputs": []
    }, 
    {
      "op": "det_sign", 
      "name": "stage1_qconv6_det_sign0", 
      "inputs": [[70, 0, 0]]
    }, 
    {
      "op": "Convolution", 
      "name": "stage1_qconv6_fwd", 
      "attrs": {
        "dilate": "(1, 1)", 
        "kernel": "(1, 1)", 
        "layout": "NCHW", 
        "no_bias": "True", 
        "num_filter": "64", 
        "num_group": "1", 
        "pad": "(0, 0)", 
        "stride": "(1, 1)"
      }, 
      "inputs": [[69, 0, 0], [71, 0, 0]]
    }, 
    {
      "op": "_plus_scalar", 
      "name": "stage1_qconv6__plusscalar0", 
      "attrs": {"scalar": "192"}, 
      "inputs": [[72, 0, 0]]
    }, 
    {
      "op": "_div_scalar", 
      "name": "stage1_qconv6__divscalar0", 
      "attrs": {"scalar": "2"}, 
      "inputs": [[73, 0, 0]]
    }, 
    {
      "op": "Concat", 
      "name": "stage1_denseblockenas4_concat0", 
      "attrs": {
        "dim": "1", 
        "num_args": "2"
      }, 
      "inputs": [[62, 0, 0], [74, 0, 0]]
    }, 
    {
      "op": "null", 
      "name": "stage1_batchnorm10_gamma", 
      "attrs": {
        "__dtype__": "0", 
        "__init__": "ones", 
        "__lr_mult__": "1.0", 
        "__shape__": "(0,)", 
        "__storage_type__": "0", 
        "__wd_mult__": "1.0"
      }, 
      "inputs": []
    }, 
    {
      "op": "null", 
      "name": "stage1_batchnorm10_beta", 
      "attrs": {
        "__dtype__": "0", 
        "__init__": "zeros", 
        "__lr_mult__": "1.0", 
        "__shape__": "(0,)", 
        "__storage_type__": "0", 
        "__wd_mult__": "1.0"
      }, 
      "inputs": []
    }, 
    {
      "op": "null", 
      "name": "stage1_batchnorm10_running_mean", 
      "attrs": {
        "__dtype__": "0", 
        "__init__": "zeros", 
        "__lr_mult__": "1.0", 
        "__shape__": "(0,)", 
        "__storage_type__": "0", 
        "__wd_mult__": "1.0"
      }, 
      "inputs": []
    }, 
    {
      "op": "null", 
      "name": "stage1_batchnorm10_running_var", 
      "attrs": {
        "__dtype__": "0", 
        "__init__": "ones", 
        "__lr_mult__": "1.0", 
        "__shape__": "(0,)", 
        "__storage_type__": "0", 
        "__wd_mult__": "1.0"
      }, 
      "inputs": []
    }, 
    {
      "op": "BatchNorm", 
      "name": "stage1_batchnorm10_fwd", 
      "attrs": {
        "axis": "1", 
        "eps": "1e-05", 
        "fix_gamma": "False", 
        "momentum": "0.9", 
        "use_global_stats": "False"
      }, 
      "inputs": [[75, 0, 0], [76, 0, 0], [77, 0, 0], [78, 0, 7], [79, 0, 7]]
    }, 
    {
      "op": "_contrib_gradcancel", 
      "name": "stage1_qactivation10_gradcancel0", 
      "attrs": {"threshold": "1.0"}, 
      "inputs": [[80, 0, 0]]
    }, 
    {
      "op": "det_sign", 
      "name": "stage1_qactivation10_det_sign0", 
      "inputs": [[81, 0, 0]]
    }, 
    {
      "op": "Pad", 
      "name": "stage1_qconv10_pad0", 
      "attrs": {
        "constant_value": "-1", 
        "mode": "constant", 
        "pad_width": "[0, 0, 0, 0, 1, 1, 1, 1]"
      }, 
      "inputs": [[82, 0, 0]]
    }, 
    {
      "op": "null", 
      "name": "stage1_qconv10_weight", 
      "attrs": {
        "__dtype__": "0", 
        "__lr_mult__": "1.0", 
        "__shape__": "(64, 0, 3, 3)", 
        "__storage_type__": "0", 
        "__wd_mult__": "0.0"
      }, 
      "inputs": []
    }, 
    {
      "op": "det_sign", 
      "name": "stage1_qconv10_det_sign0", 
      "inputs": [[84, 0, 0]]
    }, 
    {
      "op": "Convolution", 
      "name": "stage1_qconv10_fwd", 
      "attrs": {
        "dilate": "(1, 1)", 
        "kernel": "(3, 3)", 
        "layout": "NCHW", 
        "no_bias": "True", 
        "num_filter": "64", 
        "num_group": "1", 
        "pad": "(0, 0)", 
        "stride": "(1, 1)"
      }, 
      "inputs": [[83, 0, 0], [85, 0, 0]]
    }, 
    {
      "op": "_plus_scalar", 
      "name": "stage1_qconv10__plusscalar0", 
      "attrs": {"scalar": "2304"}, 
      "inputs": [[86, 0, 0]]
    }, 
    {
      "op": "_div_scalar", 
      "name": "stage1_qconv10__divscalar0", 
      "attrs": {"scalar": "2"}, 
      "inputs": [[87, 0, 0]]
    }, 
    {
      "op": "Concat", 
      "name": "stage1_denseblockenas7_concat0", 
      "attrs": {
        "dim": "1", 
        "num_args": "2"
      }, 
      "inputs": [[75, 0, 0], [88, 0, 0]]
    }, 
    {
      "op": "null", 
      "name": "batchnorm0_gamma", 
      "attrs": {
        "__dtype__": "0", 
        "__init__": "ones", 
        "__lr_mult__": "1.0", 
        "__shape__": "(0,)", 
        "__storage_type__": "0", 
        "__wd_mult__": "1.0"
      }, 
      "inputs": []
    }, 
    {
      "op": "null", 
      "name": "batchnorm0_beta", 
      "attrs": {
        "__dtype__": "0", 
        "__init__": "zeros", 
        "__lr_mult__": "1.0", 
        "__shape__": "(0,)", 
        "__storage_type__": "0", 
        "__wd_mult__": "1.0"
      }, 
      "inputs": []
    }, 
    {
      "op": "null", 
      "name": "batchnorm0_running_mean", 
      "attrs": {
        "__dtype__": "0", 
        "__init__": "zeros", 
        "__lr_mult__": "1.0", 
        "__shape__": "(0,)", 
        "__storage_type__": "0", 
        "__wd_mult__": "1.0"
      }, 
      "inputs": []
    }, 
    {
      "op": "null", 
      "name": "batchnorm0_running_var", 
      "attrs": {
        "__dtype__": "0", 
        "__init__": "ones", 
        "__lr_mult__": "1.0", 
        "__shape__": "(0,)", 
        "__storage_type__": "0", 
        "__wd_mult__": "1.0"
      }, 
      "inputs": []
    }, 
    {
      "op": "BatchNorm", 
      "name": "batchnorm0_fwd", 
      "attrs": {
        "axis": "1", 
        "eps": "1e-05", 
        "fix_gamma": "False", 
        "momentum": "0.9", 
        "use_global_stats": "False"
      }, 
      "inputs": [[89, 0, 0], [90, 0, 0], [91, 0, 0], [92, 0, 7], [93, 0, 7]]
    }, 
    {
      "op": "Pooling", 
      "name": "pool0_fwd", 
      "attrs": {
        "global_pool": "False", 
        "kernel": "(2, 2)", 
        "pad": "(0, 0)", 
        "pool_type": "max", 
        "pooling_convention": "valid", 
        "stride": "(2, 2)"
      }, 
      "inputs": [[94, 0, 0]]
    }, 
    {
      "op": "Activation", 
      "name": "relu0_fwd", 
      "attrs": {"act_type": "relu"}, 
      "inputs": [[95, 0, 0]]
    }, 
    {
      "op": "null", 
      "name": "conv1_weight", 
      "attrs": {
        "__dtype__": "0", 
        "__lr_mult__": "1.0", 
        "__shape__": "(160, 0, 1, 1)", 
        "__storage_type__": "0", 
        "__wd_mult__": "1.0"
      }, 
      "inputs": []
    }, 
    {
      "op": "Convolution", 
      "name": "conv1_fwd", 
      "attrs": {
        "dilate": "(1, 1)", 
        "kernel": "(1, 1)", 
        "layout": "NCHW", 
        "no_bias": "True", 
        "num_filter": "160", 
        "num_group": "1", 
        "pad": "(0, 0)", 
        "stride": "(1, 1)"
      }, 
      "inputs": [[96, 0, 0], [97, 0, 0]]
    }, 
    {
      "op": "null", 
      "name": "stage2_batchnorm0_gamma", 
      "attrs": {
        "__dtype__": "0", 
        "__init__": "ones", 
        "__lr_mult__": "1.0", 
        "__shape__": "(0,)", 
        "__storage_type__": "0", 
        "__wd_mult__": "1.0"
      }, 
      "inputs": []
    }, 
    {
      "op": "null", 
      "name": "stage2_batchnorm0_beta", 
      "attrs": {
        "__dtype__": "0", 
        "__init__": "zeros", 
        "__lr_mult__": "1.0", 
        "__shape__": "(0,)", 
        "__storage_type__": "0", 
        "__wd_mult__": "1.0"
      }, 
      "inputs": []
    }, 
    {
      "op": "null", 
      "name": "stage2_batchnorm0_running_mean", 
      "attrs": {
        "__dtype__": "0", 
        "__init__": "zeros", 
        "__lr_mult__": "1.0", 
        "__shape__": "(0,)", 
        "__storage_type__": "0", 
        "__wd_mult__": "1.0"
      }, 
      "inputs": []
    }, 
    {
      "op": "null", 
      "name": "stage2_batchnorm0_running_var", 
      "attrs": {
        "__dtype__": "0", 
        "__init__": "ones", 
        "__lr_mult__": "1.0", 
        "__shape__": "(0,)", 
        "__storage_type__": "0", 
        "__wd_mult__": "1.0"
      }, 
      "inputs": []
    }, 
    {
      "op": "BatchNorm", 
      "name": "stage2_batchnorm0_fwd", 
      "attrs": {
        "axis": "1", 
        "eps": "1e-05", 
        "fix_gamma": "False", 
        "momentum": "0.9", 
        "use_global_stats": "False"
      }, 
      "inputs": [[98, 0, 0], [99, 0, 0], [100, 0, 0], [101, 0, 7], [102, 0, 7]]
    }, 
    {
      "op": "_contrib_gradcancel", 
      "name": "stage2_qactivation0_gradcancel0", 
      "attrs": {"threshold": "1.0"}, 
      "inputs": [[103, 0, 0]]
    }, 
    {
      "op": "det_sign", 
      "name": "stage2_qactivation0_det_sign0", 
      "inputs": [[104, 0, 0]]
    }, 
    {
      "op": "null", 
      "name": "stage2_qconv0_weight", 
      "attrs": {
        "__dtype__": "0", 
        "__lr_mult__": "1.0", 
        "__shape__": "(64, 0, 1, 1)", 
        "__storage_type__": "0", 
        "__wd_mult__": "0.0"
      }, 
      "inputs": []
    }, 
    {
      "op": "det_sign", 
      "name": "stage2_qconv0_det_sign0", 
      "inputs": [[106, 0, 0]]
    }, 
    {
      "op": "Convolution", 
      "name": "stage2_qconv0_fwd", 
      "attrs": {
        "dilate": "(1, 1)", 
        "kernel": "(1, 1)", 
        "layout": "NCHW", 
        "no_bias": "True", 
        "num_filter": "64", 
        "num_group": "1", 
        "pad": "(0, 0)", 
        "stride": "(1, 1)"
      }, 
      "inputs": [[105, 0, 0], [107, 0, 0]]
    }, 
    {
      "op": "_plus_scalar", 
      "name": "stage2_qconv0__plusscalar0", 
      "attrs": {"scalar": "160"}, 
      "inputs": [[108, 0, 0]]
    }, 
    {
      "op": "_div_scalar", 
      "name": "stage2_qconv0__divscalar0", 
      "attrs": {"scalar": "2"}, 
      "inputs": [[109, 0, 0]]
    }, 
    {
      "op": "Concat", 
      "name": "stage2_denseblockenas0_concat0", 
      "attrs": {
        "dim": "1", 
        "num_args": "2"
      }, 
      "inputs": [[98, 0, 0], [110, 0, 0]]
    }, 
    {
      "op": "slice_axis", 
      "name": "hybridsequential6_slice_axis4", 
      "attrs": {
        "axis": "1", 
        "begin": "0", 
        "end": "160"
      }, 
      "inputs": [[111, 0, 0]]
    }, 
    {
      "op": "slice_axis", 
      "name": "hybridsequential6_slice_axis5", 
      "attrs": {
        "axis": "1", 
        "begin": "160", 
        "end": "224"
      }, 
      "inputs": [[111, 0, 0]]
    }, 
    {
      "op": "null", 
      "name": "stage2_batchnorm2_gamma", 
      "attrs": {
        "__dtype__": "0", 
        "__init__": "ones", 
        "__lr_mult__": "1.0", 
        "__shape__": "(0,)", 
        "__storage_type__": "0", 
        "__wd_mult__": "1.0"
      }, 
      "inputs": []
    }, 
    {
      "op": "null", 
      "name": "stage2_batchnorm2_beta", 
      "attrs": {
        "__dtype__": "0", 
        "__init__": "zeros", 
        "__lr_mult__": "1.0", 
        "__shape__": "(0,)", 
        "__storage_type__": "0", 
        "__wd_mult__": "1.0"
      }, 
      "inputs": []
    }, 
    {
      "op": "null", 
      "name": "stage2_batchnorm2_running_mean", 
      "attrs": {
        "__dtype__": "0", 
        "__init__": "zeros", 
        "__lr_mult__": "1.0", 
        "__shape__": "(0,)", 
        "__storage_type__": "0", 
        "__wd_mult__": "1.0"
      }, 
      "inputs": []
    }, 
    {
      "op": "null", 
      "name": "stage2_batchnorm2_running_var", 
      "attrs": {
        "__dtype__": "0", 
        "__init__": "ones", 
        "__lr_mult__": "1.0", 
        "__shape__": "(0,)", 
        "__storage_type__": "0", 
        "__wd_mult__": "1.0"
      }, 
      "inputs": []
    }, 
    {
      "op": "BatchNorm", 
      "name": "stage2_batchnorm2_fwd", 
      "attrs": {
        "axis": "1", 
        "eps": "1e-05", 
        "fix_gamma": "False", 
        "momentum": "0.9", 
        "use_global_stats": "False"
      }, 
      "inputs": [[111, 0, 0], [114, 0, 0], [115, 0, 0], [116, 0, 7], [117, 0, 7]]
    }, 
    {
      "op": "_contrib_gradcancel", 
      "name": "stage2_qactivation2_gradcancel0", 
      "attrs": {"threshold": "1.0"}, 
      "inputs": [[118, 0, 0]]
    }, 
    {
      "op": "det_sign", 
      "name": "stage2_qactivation2_det_sign0", 
      "inputs": [[119, 0, 0]]
    }, 
    {
      "op": "Pad", 
      "name": "stage2_qconv2_pad0", 
      "attrs": {
        "constant_value": "-1", 
        "mode": "constant", 
        "pad_width": "[0, 0, 0, 0, 1, 1, 1, 1]"
      }, 
      "inputs": [[120, 0, 0]]
    }, 
    {
      "op": "null", 
      "name": "stage2_qconv2_weight", 
      "attrs": {
        "__dtype__": "0", 
        "__lr_mult__": "1.0", 
        "__shape__": "(64, 224, 3, 3)", 
        "__storage_type__": "0", 
        "__wd_mult__": "0.0"
      }, 
      "inputs": []
    }, 
    {
      "op": "det_sign", 
      "name": "stage2_qconv2_det_sign0", 
      "inputs": [[122, 0, 0]]
    }, 
    {
      "op": "Convolution", 
      "name": "stage2_qconv2_fwd", 
      "attrs": {
        "dilate": "(1, 1)", 
        "kernel": "(3, 3)", 
        "layout": "NCHW", 
        "no_bias": "True", 
        "num_filter": "64", 
        "num_group": "1", 
        "pad": "(0, 0)", 
        "stride": "(1, 1)"
      }, 
      "inputs": [[121, 0, 0], [123, 0, 0]]
    }, 
    {
      "op": "_plus_scalar", 
      "name": "stage2_qconv2__plusscalar0", 
      "attrs": {"scalar": "2016"}, 
      "inputs": [[124, 0, 0]]
    }, 
    {
      "op": "_div_scalar", 
      "name": "stage2_qconv2__divscalar0", 
      "attrs": {"scalar": "2"}, 
      "inputs": [[125, 0, 0]]
    }, 
    {
      "op": "elemwise_add", 
      "name": "hybridsequential6__plus2", 
      "inputs": [[113, 0, 0], [126, 0, 0]]
    }, 
    {
      "op": "Concat", 
      "name": "hybridsequential6_concat2", 
      "attrs": {
        "dim": "1", 
        "num_args": "2"
      }, 
      "inputs": [[112, 0, 0], [127, 0, 0]]
    }, 
    {
      "op": "null", 
      "name": "stage2_batchnorm3_gamma", 
      "attrs": {
        "__dtype__": "0", 
        "__init__": "ones", 
        "__lr_mult__": "1.0", 
        "__shape__": "(0,)", 
        "__storage_type__": "0", 
        "__wd_mult__": "1.0"
      }, 
      "inputs": []
    }, 
    {
      "op": "null", 
      "name": "stage2_batchnorm3_beta", 
      "attrs": {
        "__dtype__": "0", 
        "__init__": "zeros", 
        "__lr_mult__": "1.0", 
        "__shape__": "(0,)", 
        "__storage_type__": "0", 
        "__wd_mult__": "1.0"
      }, 
      "inputs": []
    }, 
    {
      "op": "null", 
      "name": "stage2_batchnorm3_running_mean", 
      "attrs": {
        "__dtype__": "0", 
        "__init__": "zeros", 
        "__lr_mult__": "1.0", 
        "__shape__": "(0,)", 
        "__storage_type__": "0", 
        "__wd_mult__": "1.0"
      }, 
      "inputs": []
    }, 
    {
      "op": "null", 
      "name": "stage2_batchnorm3_running_var", 
      "attrs": {
        "__dtype__": "0", 
        "__init__": "ones", 
        "__lr_mult__": "1.0", 
        "__shape__": "(0,)", 
        "__storage_type__": "0", 
        "__wd_mult__": "1.0"
      }, 
      "inputs": []
    }, 
    {
      "op": "BatchNorm", 
      "name": "stage2_batchnorm3_fwd", 
      "attrs": {
        "axis": "1", 
        "eps": "1e-05", 
        "fix_gamma": "False", 
        "momentum": "0.9", 
        "use_global_stats": "False"
      }, 
      "inputs": [[128, 0, 0], [129, 0, 0], [130, 0, 0], [131, 0, 7], [132, 0, 7]]
    }, 
    {
      "op": "_contrib_gradcancel", 
      "name": "stage2_qactivation3_gradcancel0", 
      "attrs": {"threshold": "1.0"}, 
      "inputs": [[133, 0, 0]]
    }, 
    {
      "op": "det_sign", 
      "name": "stage2_qactivation3_det_sign0", 
      "inputs": [[134, 0, 0]]
    }, 
    {
      "op": "null", 
      "name": "stage2_qconv3_weight", 
      "attrs": {
        "__dtype__": "0", 
        "__lr_mult__": "1.0", 
        "__shape__": "(64, 0, 1, 1)", 
        "__storage_type__": "0", 
        "__wd_mult__": "0.0"
      }, 
      "inputs": []
    }, 
    {
      "op": "det_sign", 
      "name": "stage2_qconv3_det_sign0", 
      "inputs": [[136, 0, 0]]
    }, 
    {
      "op": "Convolution", 
      "name": "stage2_qconv3_fwd", 
      "attrs": {
        "dilate": "(1, 1)", 
        "kernel": "(1, 1)", 
        "layout": "NCHW", 
        "no_bias": "True", 
        "num_filter": "64", 
        "num_group": "1", 
        "pad": "(0, 0)", 
        "stride": "(1, 1)"
      }, 
      "inputs": [[135, 0, 0], [137, 0, 0]]
    }, 
    {
      "op": "_plus_scalar", 
      "name": "stage2_qconv3__plusscalar0", 
      "attrs": {"scalar": "224"}, 
      "inputs": [[138, 0, 0]]
    }, 
    {
      "op": "_div_scalar", 
      "name": "stage2_qconv3__divscalar0", 
      "attrs": {"scalar": "2"}, 
      "inputs": [[139, 0, 0]]
    }, 
    {
      "op": "Concat", 
      "name": "stage2_denseblockenas2_concat0", 
      "attrs": {
        "dim": "1", 
        "num_args": "2"
      }, 
      "inputs": [[128, 0, 0], [140, 0, 0]]
    }, 
    {
      "op": "null", 
      "name": "stage2_batchnorm6_gamma", 
      "attrs": {
        "__dtype__": "0", 
        "__init__": "ones", 
        "__lr_mult__": "1.0", 
        "__shape__": "(0,)", 
        "__storage_type__": "0", 
        "__wd_mult__": "1.0"
      }, 
      "inputs": []
    }, 
    {
      "op": "null", 
      "name": "stage2_batchnorm6_beta", 
      "attrs": {
        "__dtype__": "0", 
        "__init__": "zeros", 
        "__lr_mult__": "1.0", 
        "__shape__": "(0,)", 
        "__storage_type__": "0", 
        "__wd_mult__": "1.0"
      }, 
      "inputs": []
    }, 
    {
      "op": "null", 
      "name": "stage2_batchnorm6_running_mean", 
      "attrs": {
        "__dtype__": "0", 
        "__init__": "zeros", 
        "__lr_mult__": "1.0", 
        "__shape__": "(0,)", 
        "__storage_type__": "0", 
        "__wd_mult__": "1.0"
      }, 
      "inputs": []
    }, 
    {
      "op": "null", 
      "name": "stage2_batchnorm6_running_var", 
      "attrs": {
        "__dtype__": "0", 
        "__init__": "ones", 
        "__lr_mult__": "1.0", 
        "__shape__": "(0,)", 
        "__storage_type__": "0", 
        "__wd_mult__": "1.0"
      }, 
      "inputs": []
    }, 
    {
      "op": "BatchNorm", 
      "name": "stage2_batchnorm6_fwd", 
      "attrs": {
        "axis": "1", 
        "eps": "1e-05", 
        "fix_gamma": "False", 
        "momentum": "0.9", 
        "use_global_stats": "False"
      }, 
      "inputs": [[141, 0, 0], [142, 0, 0], [143, 0, 0], [144, 0, 7], [145, 0, 7]]
    }, 
    {
      "op": "_contrib_gradcancel", 
      "name": "stage2_qactivation6_gradcancel0", 
      "attrs": {"threshold": "1.0"}, 
      "inputs": [[146, 0, 0]]
    }, 
    {
      "op": "det_sign", 
      "name": "stage2_qactivation6_det_sign0", 
      "inputs": [[147, 0, 0]]
    }, 
    {
      "op": "null", 
      "name": "stage2_qconv6_weight", 
      "attrs": {
        "__dtype__": "0", 
        "__lr_mult__": "1.0", 
        "__shape__": "(64, 0, 1, 1)", 
        "__storage_type__": "0", 
        "__wd_mult__": "0.0"
      }, 
      "inputs": []
    }, 
    {
      "op": "det_sign", 
      "name": "stage2_qconv6_det_sign0", 
      "inputs": [[149, 0, 0]]
    }, 
    {
      "op": "Convolution", 
      "name": "stage2_qconv6_fwd", 
      "attrs": {
        "dilate": "(1, 1)", 
        "kernel": "(1, 1)", 
        "layout": "NCHW", 
        "no_bias": "True", 
        "num_filter": "64", 
        "num_group": "1", 
        "pad": "(0, 0)", 
        "stride": "(1, 1)"
      }, 
      "inputs": [[148, 0, 0], [150, 0, 0]]
    }, 
    {
      "op": "_plus_scalar", 
      "name": "stage2_qconv6__plusscalar0", 
      "attrs": {"scalar": "288"}, 
      "inputs": [[151, 0, 0]]
    }, 
    {
      "op": "_div_scalar", 
      "name": "stage2_qconv6__divscalar0", 
      "attrs": {"scalar": "2"}, 
      "inputs": [[152, 0, 0]]
    }, 
    {
      "op": "Concat", 
      "name": "stage2_denseblockenas4_concat0", 
      "attrs": {
        "dim": "1", 
        "num_args": "2"
      }, 
      "inputs": [[141, 0, 0], [153, 0, 0]]
    }, 
    {
      "op": "null", 
      "name": "stage2_batchnorm10_gamma", 
      "attrs": {
        "__dtype__": "0", 
        "__init__": "ones", 
        "__lr_mult__": "1.0", 
        "__shape__": "(0,)", 
        "__storage_type__": "0", 
        "__wd_mult__": "1.0"
      }, 
      "inputs": []
    }, 
    {
      "op": "null", 
      "name": "stage2_batchnorm10_beta", 
      "attrs": {
        "__dtype__": "0", 
        "__init__": "zeros", 
        "__lr_mult__": "1.0", 
        "__shape__": "(0,)", 
        "__storage_type__": "0", 
        "__wd_mult__": "1.0"
      }, 
      "inputs": []
    }, 
    {
      "op": "null", 
      "name": "stage2_batchnorm10_running_mean", 
      "attrs": {
        "__dtype__": "0", 
        "__init__": "zeros", 
        "__lr_mult__": "1.0", 
        "__shape__": "(0,)", 
        "__storage_type__": "0", 
        "__wd_mult__": "1.0"
      }, 
      "inputs": []
    }, 
    {
      "op": "null", 
      "name": "stage2_batchnorm10_running_var", 
      "attrs": {
        "__dtype__": "0", 
        "__init__": "ones", 
        "__lr_mult__": "1.0", 
        "__shape__": "(0,)", 
        "__storage_type__": "0", 
        "__wd_mult__": "1.0"
      }, 
      "inputs": []
    }, 
    {
      "op": "BatchNorm", 
      "name": "stage2_batchnorm10_fwd", 
      "attrs": {
        "axis": "1", 
        "eps": "1e-05", 
        "fix_gamma": "False", 
        "momentum": "0.9", 
        "use_global_stats": "False"
      }, 
      "inputs": [[154, 0, 0], [155, 0, 0], [156, 0, 0], [157, 0, 7], [158, 0, 7]]
    }, 
    {
      "op": "_contrib_gradcancel", 
      "name": "stage2_qactivation10_gradcancel0", 
      "attrs": {"threshold": "1.0"}, 
      "inputs": [[159, 0, 0]]
    }, 
    {
      "op": "det_sign", 
      "name": "stage2_qactivation10_det_sign0", 
      "inputs": [[160, 0, 0]]
    }, 
    {
      "op": "Pad", 
      "name": "stage2_qconv10_pad0", 
      "attrs": {
        "constant_value": "-1", 
        "mode": "constant", 
        "pad_width": "[0, 0, 0, 0, 1, 1, 1, 1]"
      }, 
      "inputs": [[161, 0, 0]]
    }, 
    {
      "op": "null", 
      "name": "stage2_qconv10_weight", 
      "attrs": {
        "__dtype__": "0", 
        "__lr_mult__": "1.0", 
        "__shape__": "(64, 0, 3, 3)", 
        "__storage_type__": "0", 
        "__wd_mult__": "0.0"
      }, 
      "inputs": []
    }, 
    {
      "op": "det_sign", 
      "name": "stage2_qconv10_det_sign0", 
      "inputs": [[163, 0, 0]]
    }, 
    {
      "op": "Convolution", 
      "name": "stage2_qconv10_fwd", 
      "attrs": {
        "dilate": "(1, 1)", 
        "kernel": "(3, 3)", 
        "layout": "NCHW", 
        "no_bias": "True", 
        "num_filter": "64", 
        "num_group": "1", 
        "pad": "(0, 0)", 
        "stride": "(1, 1)"
      }, 
      "inputs": [[162, 0, 0], [164, 0, 0]]
    }, 
    {
      "op": "_plus_scalar", 
      "name": "stage2_qconv10__plusscalar0", 
      "attrs": {"scalar": "3168"}, 
      "inputs": [[165, 0, 0]]
    }, 
    {
      "op": "_div_scalar", 
      "name": "stage2_qconv10__divscalar0", 
      "attrs": {"scalar": "2"}, 
      "inputs": [[166, 0, 0]]
    }, 
    {
      "op": "Concat", 
      "name": "stage2_denseblockenas7_concat0", 
      "attrs": {
        "dim": "1", 
        "num_args": "2"
      }, 
      "inputs": [[154, 0, 0], [167, 0, 0]]
    }, 
    {
      "op": "null", 
      "name": "stage2_batchnorm13_gamma", 
      "attrs": {
        "__dtype__": "0", 
        "__init__": "ones", 
        "__lr_mult__": "1.0", 
        "__shape__": "(0,)", 
        "__storage_type__": "0", 
        "__wd_mult__": "1.0"
      }, 
      "inputs": []
    }, 
    {
      "op": "null", 
      "name": "stage2_batchnorm13_beta", 
      "attrs": {
        "__dtype__": "0", 
        "__init__": "zeros", 
        "__lr_mult__": "1.0", 
        "__shape__": "(0,)", 
        "__storage_type__": "0", 
        "__wd_mult__": "1.0"
      }, 
      "inputs": []
    }, 
    {
      "op": "null", 
      "name": "stage2_batchnorm13_running_mean", 
      "attrs": {
        "__dtype__": "0", 
        "__init__": "zeros", 
        "__lr_mult__": "1.0", 
        "__shape__": "(0,)", 
        "__storage_type__": "0", 
        "__wd_mult__": "1.0"
      }, 
      "inputs": []
    }, 
    {
      "op": "null", 
      "name": "stage2_batchnorm13_running_var", 
      "attrs": {
        "__dtype__": "0", 
        "__init__": "ones", 
        "__lr_mult__": "1.0", 
        "__shape__": "(0,)", 
        "__storage_type__": "0", 
        "__wd_mult__": "1.0"
      }, 
      "inputs": []
    }, 
    {
      "op": "BatchNorm", 
      "name": "stage2_batchnorm13_fwd", 
      "attrs": {
        "axis": "1", 
        "eps": "1e-05", 
        "fix_gamma": "False", 
        "momentum": "0.9", 
        "use_global_stats": "False"
      }, 
      "inputs": [[168, 0, 0], [169, 0, 0], [170, 0, 0], [171, 0, 7], [172, 0, 7]]
    }, 
    {
      "op": "_contrib_gradcancel", 
      "name": "stage2_qactivation13_gradcancel0", 
      "attrs": {"threshold": "1.0"}, 
      "inputs": [[173, 0, 0]]
    }, 
    {
      "op": "det_sign", 
      "name": "stage2_qactivation13_det_sign0", 
      "inputs": [[174, 0, 0]]
    }, 
    {
      "op": "Pad", 
      "name": "stage2_qconv13_pad0", 
      "attrs": {
        "constant_value": "-1", 
        "mode": "constant", 
        "pad_width": "[0, 0, 0, 0, 1, 1, 1, 1]"
      }, 
      "inputs": [[175, 0, 0]]
    }, 
    {
      "op": "null", 
      "name": "stage2_qconv13_weight", 
      "attrs": {
        "__dtype__": "0", 
        "__lr_mult__": "1.0", 
        "__shape__": "(64, 0, 3, 3)", 
        "__storage_type__": "0", 
        "__wd_mult__": "0.0"
      }, 
      "inputs": []
    }, 
    {
      "op": "det_sign", 
      "name": "stage2_qconv13_det_sign0", 
      "inputs": [[177, 0, 0]]
    }, 
    {
      "op": "Convolution", 
      "name": "stage2_qconv13_fwd", 
      "attrs": {
        "dilate": "(1, 1)", 
        "kernel": "(3, 3)", 
        "layout": "NCHW", 
        "no_bias": "True", 
        "num_filter": "64", 
        "num_group": "1", 
        "pad": "(0, 0)", 
        "stride": "(1, 1)"
      }, 
      "inputs": [[176, 0, 0], [178, 0, 0]]
    }, 
    {
      "op": "_plus_scalar", 
      "name": "stage2_qconv13__plusscalar0", 
      "attrs": {"scalar": "3744"}, 
      "inputs": [[179, 0, 0]]
    }, 
    {
      "op": "_div_scalar", 
      "name": "stage2_qconv13__divscalar0", 
      "attrs": {"scalar": "2"}, 
      "inputs": [[180, 0, 0]]
    }, 
    {
      "op": "Concat", 
      "name": "stage2_denseblockenas9_concat0", 
      "attrs": {
        "dim": "1", 
        "num_args": "2"
      }, 
      "inputs": [[168, 0, 0], [181, 0, 0]]
    }, 
    {
      "op": "null", 
      "name": "batchnorm1_gamma", 
      "attrs": {
        "__dtype__": "0", 
        "__init__": "ones", 
        "__lr_mult__": "1.0", 
        "__shape__": "(0,)", 
        "__storage_type__": "0", 
        "__wd_mult__": "1.0"
      }, 
      "inputs": []
    }, 
    {
      "op": "null", 
      "name": "batchnorm1_beta", 
      "attrs": {
        "__dtype__": "0", 
        "__init__": "zeros", 
        "__lr_mult__": "1.0", 
        "__shape__": "(0,)", 
        "__storage_type__": "0", 
        "__wd_mult__": "1.0"
      }, 
      "inputs": []
    }, 
    {
      "op": "null", 
      "name": "batchnorm1_running_mean", 
      "attrs": {
        "__dtype__": "0", 
        "__init__": "zeros", 
        "__lr_mult__": "1.0", 
        "__shape__": "(0,)", 
        "__storage_type__": "0", 
        "__wd_mult__": "1.0"
      }, 
      "inputs": []
    }, 
    {
      "op": "null", 
      "name": "batchnorm1_running_var", 
      "attrs": {
        "__dtype__": "0", 
        "__init__": "ones", 
        "__lr_mult__": "1.0", 
        "__shape__": "(0,)", 
        "__storage_type__": "0", 
        "__wd_mult__": "1.0"
      }, 
      "inputs": []
    }, 
    {
      "op": "BatchNorm", 
      "name": "batchnorm1_fwd", 
      "attrs": {
        "axis": "1", 
        "eps": "1e-05", 
        "fix_gamma": "False", 
        "momentum": "0.9", 
        "use_global_stats": "False"
      }, 
      "inputs": [[182, 0, 0], [183, 0, 0], [184, 0, 0], [185, 0, 7], [186, 0, 7]]
    }, 
    {
      "op": "Pooling", 
      "name": "pool1_fwd", 
      "attrs": {
        "global_pool": "False", 
        "kernel": "(2, 2)", 
        "pad": "(0, 0)", 
        "pool_type": "max", 
        "pooling_convention": "valid", 
        "stride": "(2, 2)"
      }, 
      "inputs": [[187, 0, 0]]
    }, 
    {
      "op": "Activation", 
      "name": "relu1_fwd", 
      "attrs": {"act_type": "relu"}, 
      "inputs": [[188, 0, 0]]
    }, 
    {
      "op": "null", 
      "name": "conv2_weight", 
      "attrs": {
        "__dtype__": "0", 
        "__lr_mult__": "1.0", 
        "__shape__": "(224, 0, 1, 1)", 
        "__storage_type__": "0", 
        "__wd_mult__": "1.0"
      }, 
      "inputs": []
    }, 
    {
      "op": "Convolution", 
      "name": "conv2_fwd", 
      "attrs": {
        "dilate": "(1, 1)", 
        "kernel": "(1, 1)", 
        "layout": "NCHW", 
        "no_bias": "True", 
        "num_filter": "224", 
        "num_group": "1", 
        "pad": "(0, 0)", 
        "stride": "(1, 1)"
      }, 
      "inputs": [[189, 0, 0], [190, 0, 0]]
    }, 
    {
      "op": "null", 
      "name": "stage3_batchnorm0_gamma", 
      "attrs": {
        "__dtype__": "0", 
        "__init__": "ones", 
        "__lr_mult__": "1.0", 
        "__shape__": "(0,)", 
        "__storage_type__": "0", 
        "__wd_mult__": "1.0"
      }, 
      "inputs": []
    }, 
    {
      "op": "null", 
      "name": "stage3_batchnorm0_beta", 
      "attrs": {
        "__dtype__": "0", 
        "__init__": "zeros", 
        "__lr_mult__": "1.0", 
        "__shape__": "(0,)", 
        "__storage_type__": "0", 
        "__wd_mult__": "1.0"
      }, 
      "inputs": []
    }, 
    {
      "op": "null", 
      "name": "stage3_batchnorm0_running_mean", 
      "attrs": {
        "__dtype__": "0", 
        "__init__": "zeros", 
        "__lr_mult__": "1.0", 
        "__shape__": "(0,)", 
        "__storage_type__": "0", 
        "__wd_mult__": "1.0"
      }, 
      "inputs": []
    }, 
    {
      "op": "null", 
      "name": "stage3_batchnorm0_running_var", 
      "attrs": {
        "__dtype__": "0", 
        "__init__": "ones", 
        "__lr_mult__": "1.0", 
        "__shape__": "(0,)", 
        "__storage_type__": "0", 
        "__wd_mult__": "1.0"
      }, 
      "inputs": []
    }, 
    {
      "op": "BatchNorm", 
      "name": "stage3_batchnorm0_fwd", 
      "attrs": {
        "axis": "1", 
        "eps": "1e-05", 
        "fix_gamma": "False", 
        "momentum": "0.9", 
        "use_global_stats": "False"
      }, 
      "inputs": [[191, 0, 0], [192, 0, 0], [193, 0, 0], [194, 0, 7], [195, 0, 7]]
    }, 
    {
      "op": "_contrib_gradcancel", 
      "name": "stage3_qactivation0_gradcancel0", 
      "attrs": {"threshold": "1.0"}, 
      "inputs": [[196, 0, 0]]
    }, 
    {
      "op": "det_sign", 
      "name": "stage3_qactivation0_det_sign0", 
      "inputs": [[197, 0, 0]]
    }, 
    {
      "op": "null", 
      "name": "stage3_qconv0_weight", 
      "attrs": {
        "__dtype__": "0", 
        "__lr_mult__": "1.0", 
        "__shape__": "(64, 0, 1, 1)", 
        "__storage_type__": "0", 
        "__wd_mult__": "0.0"
      }, 
      "inputs": []
    }, 
    {
      "op": "det_sign", 
      "name": "stage3_qconv0_det_sign0", 
      "inputs": [[199, 0, 0]]
    }, 
    {
      "op": "Convolution", 
      "name": "stage3_qconv0_fwd", 
      "attrs": {
        "dilate": "(1, 1)", 
        "kernel": "(1, 1)", 
        "layout": "NCHW", 
        "no_bias": "True", 
        "num_filter": "64", 
        "num_group": "1", 
        "pad": "(0, 0)", 
        "stride": "(1, 1)"
      }, 
      "inputs": [[198, 0, 0], [200, 0, 0]]
    }, 
    {
      "op": "_plus_scalar", 
      "name": "stage3_qconv0__plusscalar0", 
      "attrs": {"scalar": "224"}, 
      "inputs": [[201, 0, 0]]
    }, 
    {
      "op": "_div_scalar", 
      "name": "stage3_qconv0__divscalar0", 
      "attrs": {"scalar": "2"}, 
      "inputs": [[202, 0, 0]]
    }, 
    {
      "op": "Concat", 
      "name": "stage3_denseblockenas0_concat0", 
      "attrs": {
        "dim": "1", 
        "num_args": "2"
      }, 
      "inputs": [[191, 0, 0], [203, 0, 0]]
    }, 
    {
      "op": "slice_axis", 
      "name": "hybridsequential6_slice_axis6", 
      "attrs": {
        "axis": "1", 
        "begin": "0", 
        "end": "224"
      }, 
      "inputs": [[204, 0, 0]]
    }, 
    {
      "op": "slice_axis", 
      "name": "hybridsequential6_slice_axis7", 
      "attrs": {
        "axis": "1", 
        "begin": "224", 
        "end": "288"
      }, 
      "inputs": [[204, 0, 0]]
    }, 
    {
      "op": "null", 
      "name": "stage3_batchnorm2_gamma", 
      "attrs": {
        "__dtype__": "0", 
        "__init__": "ones", 
        "__lr_mult__": "1.0", 
        "__shape__": "(0,)", 
        "__storage_type__": "0", 
        "__wd_mult__": "1.0"
      }, 
      "inputs": []
    }, 
    {
      "op": "null", 
      "name": "stage3_batchnorm2_beta", 
      "attrs": {
        "__dtype__": "0", 
        "__init__": "zeros", 
        "__lr_mult__": "1.0", 
        "__shape__": "(0,)", 
        "__storage_type__": "0", 
        "__wd_mult__": "1.0"
      }, 
      "inputs": []
    }, 
    {
      "op": "null", 
      "name": "stage3_batchnorm2_running_mean", 
      "attrs": {
        "__dtype__": "0", 
        "__init__": "zeros", 
        "__lr_mult__": "1.0", 
        "__shape__": "(0,)", 
        "__storage_type__": "0", 
        "__wd_mult__": "1.0"
      }, 
      "inputs": []
    }, 
    {
      "op": "null", 
      "name": "stage3_batchnorm2_running_var", 
      "attrs": {
        "__dtype__": "0", 
        "__init__": "ones", 
        "__lr_mult__": "1.0", 
        "__shape__": "(0,)", 
        "__storage_type__": "0", 
        "__wd_mult__": "1.0"
      }, 
      "inputs": []
    }, 
    {
      "op": "BatchNorm", 
      "name": "stage3_batchnorm2_fwd", 
      "attrs": {
        "axis": "1", 
        "eps": "1e-05", 
        "fix_gamma": "False", 
        "momentum": "0.9", 
        "use_global_stats": "False"
      }, 
      "inputs": [[204, 0, 0], [207, 0, 0], [208, 0, 0], [209, 0, 7], [210, 0, 7]]
    }, 
    {
      "op": "_contrib_gradcancel", 
      "name": "stage3_qactivation2_gradcancel0", 
      "attrs": {"threshold": "1.0"}, 
      "inputs": [[211, 0, 0]]
    }, 
    {
      "op": "det_sign", 
      "name": "stage3_qactivation2_det_sign0", 
      "inputs": [[212, 0, 0]]
    }, 
    {
      "op": "Pad", 
      "name": "stage3_qconv2_pad0", 
      "attrs": {
        "constant_value": "-1", 
        "mode": "constant", 
        "pad_width": "[0, 0, 0, 0, 1, 1, 1, 1]"
      }, 
      "inputs": [[213, 0, 0]]
    }, 
    {
      "op": "null", 
      "name": "stage3_qconv2_weight", 
      "attrs": {
        "__dtype__": "0", 
        "__lr_mult__": "1.0", 
        "__shape__": "(64, 288, 3, 3)", 
        "__storage_type__": "0", 
        "__wd_mult__": "0.0"
      }, 
      "inputs": []
    }, 
    {
      "op": "det_sign", 
      "name": "stage3_qconv2_det_sign0", 
      "inputs": [[215, 0, 0]]
    }, 
    {
      "op": "Convolution", 
      "name": "stage3_qconv2_fwd", 
      "attrs": {
        "dilate": "(1, 1)", 
        "kernel": "(3, 3)", 
        "layout": "NCHW", 
        "no_bias": "True", 
        "num_filter": "64", 
        "num_group": "1", 
        "pad": "(0, 0)", 
        "stride": "(1, 1)"
      }, 
      "inputs": [[214, 0, 0], [216, 0, 0]]
    }, 
    {
      "op": "_plus_scalar", 
      "name": "stage3_qconv2__plusscalar0", 
      "attrs": {"scalar": "2592"}, 
      "inputs": [[217, 0, 0]]
    }, 
    {
      "op": "_div_scalar", 
      "name": "stage3_qconv2__divscalar0", 
      "attrs": {"scalar": "2"}, 
      "inputs": [[218, 0, 0]]
    }, 
    {
      "op": "elemwise_add", 
      "name": "hybridsequential6__plus3", 
      "inputs": [[206, 0, 0], [219, 0, 0]]
    }, 
    {
      "op": "Concat", 
      "name": "hybridsequential6_concat3", 
      "attrs": {
        "dim": "1", 
        "num_args": "2"
      }, 
      "inputs": [[205, 0, 0], [220, 0, 0]]
    }, 
    {
      "op": "null", 
      "name": "stage3_batchnorm3_gamma", 
      "attrs": {
        "__dtype__": "0", 
        "__init__": "ones", 
        "__lr_mult__": "1.0", 
        "__shape__": "(0,)", 
        "__storage_type__": "0", 
        "__wd_mult__": "1.0"
      }, 
      "inputs": []
    }, 
    {
      "op": "null", 
      "name": "stage3_batchnorm3_beta", 
      "attrs": {
        "__dtype__": "0", 
        "__init__": "zeros", 
        "__lr_mult__": "1.0", 
        "__shape__": "(0,)", 
        "__storage_type__": "0", 
        "__wd_mult__": "1.0"
      }, 
      "inputs": []
    }, 
    {
      "op": "null", 
      "name": "stage3_batchnorm3_running_mean", 
      "attrs": {
        "__dtype__": "0", 
        "__init__": "zeros", 
        "__lr_mult__": "1.0", 
        "__shape__": "(0,)", 
        "__storage_type__": "0", 
        "__wd_mult__": "1.0"
      }, 
      "inputs": []
    }, 
    {
      "op": "null", 
      "name": "stage3_batchnorm3_running_var", 
      "attrs": {
        "__dtype__": "0", 
        "__init__": "ones", 
        "__lr_mult__": "1.0", 
        "__shape__": "(0,)", 
        "__storage_type__": "0", 
        "__wd_mult__": "1.0"
      }, 
      "inputs": []
    }, 
    {
      "op": "BatchNorm", 
      "name": "stage3_batchnorm3_fwd", 
      "attrs": {
        "axis": "1", 
        "eps": "1e-05", 
        "fix_gamma": "False", 
        "momentum": "0.9", 
        "use_global_stats": "False"
      }, 
      "inputs": [[221, 0, 0], [222, 0, 0], [223, 0, 0], [224, 0, 7], [225, 0, 7]]
    }, 
    {
      "op": "_contrib_gradcancel", 
      "name": "stage3_qactivation3_gradcancel0", 
      "attrs": {"threshold": "1.0"}, 
      "inputs": [[226, 0, 0]]
    }, 
    {
      "op": "det_sign", 
      "name": "stage3_qactivation3_det_sign0", 
      "inputs": [[227, 0, 0]]
    }, 
    {
      "op": "null", 
      "name": "stage3_qconv3_weight", 
      "attrs": {
        "__dtype__": "0", 
        "__lr_mult__": "1.0", 
        "__shape__": "(64, 0, 1, 1)", 
        "__storage_type__": "0", 
        "__wd_mult__": "0.0"
      }, 
      "inputs": []
    }, 
    {
      "op": "det_sign", 
      "name": "stage3_qconv3_det_sign0", 
      "inputs": [[229, 0, 0]]
    }, 
    {
      "op": "Convolution", 
      "name": "stage3_qconv3_fwd", 
      "attrs": {
        "dilate": "(1, 1)", 
        "kernel": "(1, 1)", 
        "layout": "NCHW", 
        "no_bias": "True", 
        "num_filter": "64", 
        "num_group": "1", 
        "pad": "(0, 0)", 
        "stride": "(1, 1)"
      }, 
      "inputs": [[228, 0, 0], [230, 0, 0]]
    }, 
    {
      "op": "_plus_scalar", 
      "name": "stage3_qconv3__plusscalar0", 
      "attrs": {"scalar": "288"}, 
      "inputs": [[231, 0, 0]]
    }, 
    {
      "op": "_div_scalar", 
      "name": "stage3_qconv3__divscalar0", 
      "attrs": {"scalar": "2"}, 
      "inputs": [[232, 0, 0]]
    }, 
    {
      "op": "Concat", 
      "name": "stage3_denseblockenas2_concat0", 
      "attrs": {
        "dim": "1", 
        "num_args": "2"
      }, 
      "inputs": [[221, 0, 0], [233, 0, 0]]
    }, 
    {
      "op": "null", 
      "name": "stage3_batchnorm6_gamma", 
      "attrs": {
        "__dtype__": "0", 
        "__init__": "ones", 
        "__lr_mult__": "1.0", 
        "__shape__": "(0,)", 
        "__storage_type__": "0", 
        "__wd_mult__": "1.0"
      }, 
      "inputs": []
    }, 
    {
      "op": "null", 
      "name": "stage3_batchnorm6_beta", 
      "attrs": {
        "__dtype__": "0", 
        "__init__": "zeros", 
        "__lr_mult__": "1.0", 
        "__shape__": "(0,)", 
        "__storage_type__": "0", 
        "__wd_mult__": "1.0"
      }, 
      "inputs": []
    }, 
    {
      "op": "null", 
      "name": "stage3_batchnorm6_running_mean", 
      "attrs": {
        "__dtype__": "0", 
        "__init__": "zeros", 
        "__lr_mult__": "1.0", 
        "__shape__": "(0,)", 
        "__storage_type__": "0", 
        "__wd_mult__": "1.0"
      }, 
      "inputs": []
    }, 
    {
      "op": "null", 
      "name": "stage3_batchnorm6_running_var", 
      "attrs": {
        "__dtype__": "0", 
        "__init__": "ones", 
        "__lr_mult__": "1.0", 
        "__shape__": "(0,)", 
        "__storage_type__": "0", 
        "__wd_mult__": "1.0"
      }, 
      "inputs": []
    }, 
    {
      "op": "BatchNorm", 
      "name": "stage3_batchnorm6_fwd", 
      "attrs": {
        "axis": "1", 
        "eps": "1e-05", 
        "fix_gamma": "False", 
        "momentum": "0.9", 
        "use_global_stats": "False"
      }, 
      "inputs": [[234, 0, 0], [235, 0, 0], [236, 0, 0], [237, 0, 7], [238, 0, 7]]
    }, 
    {
      "op": "_contrib_gradcancel", 
      "name": "stage3_qactivation6_gradcancel0", 
      "attrs": {"threshold": "1.0"}, 
      "inputs": [[239, 0, 0]]
    }, 
    {
      "op": "det_sign", 
      "name": "stage3_qactivation6_det_sign0", 
      "inputs": [[240, 0, 0]]
    }, 
    {
      "op": "null", 
      "name": "stage3_qconv6_weight", 
      "attrs": {
        "__dtype__": "0", 
        "__lr_mult__": "1.0", 
        "__shape__": "(64, 0, 1, 1)", 
        "__storage_type__": "0", 
        "__wd_mult__": "0.0"
      }, 
      "inputs": []
    }, 
    {
      "op": "det_sign", 
      "name": "stage3_qconv6_det_sign0", 
      "inputs": [[242, 0, 0]]
    }, 
    {
      "op": "Convolution", 
      "name": "stage3_qconv6_fwd", 
      "attrs": {
        "dilate": "(1, 1)", 
        "kernel": "(1, 1)", 
        "layout": "NCHW", 
        "no_bias": "True", 
        "num_filter": "64", 
        "num_group": "1", 
        "pad": "(0, 0)", 
        "stride": "(1, 1)"
      }, 
      "inputs": [[241, 0, 0], [243, 0, 0]]
    }, 
    {
      "op": "_plus_scalar", 
      "name": "stage3_qconv6__plusscalar0", 
      "attrs": {"scalar": "352"}, 
      "inputs": [[244, 0, 0]]
    }, 
    {
      "op": "_div_scalar", 
      "name": "stage3_qconv6__divscalar0", 
      "attrs": {"scalar": "2"}, 
      "inputs": [[245, 0, 0]]
    }, 
    {
      "op": "Concat", 
      "name": "stage3_denseblockenas4_concat0", 
      "attrs": {
        "dim": "1", 
        "num_args": "2"
      }, 
      "inputs": [[234, 0, 0], [246, 0, 0]]
    }, 
    {
      "op": "slice_axis", 
      "name": "hybridsequential6_slice_axis8", 
      "attrs": {
        "axis": "1", 
        "begin": "0", 
        "end": "352"
      }, 
      "inputs": [[247, 0, 0]]
    }, 
    {
      "op": "slice_axis", 
      "name": "hybridsequential6_slice_axis9", 
      "attrs": {
        "axis": "1", 
        "begin": "352", 
        "end": "416"
      }, 
      "inputs": [[247, 0, 0]]
    }, 
    {
      "op": "null", 
      "name": "stage3_batchnorm8_gamma", 
      "attrs": {
        "__dtype__": "0", 
        "__init__": "ones", 
        "__lr_mult__": "1.0", 
        "__shape__": "(0,)", 
        "__storage_type__": "0", 
        "__wd_mult__": "1.0"
      }, 
      "inputs": []
    }, 
    {
      "op": "null", 
      "name": "stage3_batchnorm8_beta", 
      "attrs": {
        "__dtype__": "0", 
        "__init__": "zeros", 
        "__lr_mult__": "1.0", 
        "__shape__": "(0,)", 
        "__storage_type__": "0", 
        "__wd_mult__": "1.0"
      }, 
      "inputs": []
    }, 
    {
      "op": "null", 
      "name": "stage3_batchnorm8_running_mean", 
      "attrs": {
        "__dtype__": "0", 
        "__init__": "zeros", 
        "__lr_mult__": "1.0", 
        "__shape__": "(0,)", 
        "__storage_type__": "0", 
        "__wd_mult__": "1.0"
      }, 
      "inputs": []
    }, 
    {
      "op": "null", 
      "name": "stage3_batchnorm8_running_var", 
      "attrs": {
        "__dtype__": "0", 
        "__init__": "ones", 
        "__lr_mult__": "1.0", 
        "__shape__": "(0,)", 
        "__storage_type__": "0", 
        "__wd_mult__": "1.0"
      }, 
      "inputs": []
    }, 
    {
      "op": "BatchNorm", 
      "name": "stage3_batchnorm8_fwd", 
      "attrs": {
        "axis": "1", 
        "eps": "1e-05", 
        "fix_gamma": "False", 
        "momentum": "0.9", 
        "use_global_stats": "False"
      }, 
      "inputs": [[247, 0, 0], [250, 0, 0], [251, 0, 0], [252, 0, 7], [253, 0, 7]]
    }, 
    {
      "op": "_contrib_gradcancel", 
      "name": "stage3_qactivation8_gradcancel0", 
      "attrs": {"threshold": "1.0"}, 
      "inputs": [[254, 0, 0]]
    }, 
    {
      "op": "det_sign", 
      "name": "stage3_qactivation8_det_sign0", 
      "inputs": [[255, 0, 0]]
    }, 
    {
      "op": "Pad", 
      "name": "stage3_qconv8_pad0", 
      "attrs": {
        "constant_value": "-1", 
        "mode": "constant", 
        "pad_width": "[0, 0, 0, 0, 1, 1, 1, 1]"
      }, 
      "inputs": [[256, 0, 0]]
    }, 
    {
      "op": "null", 
      "name": "stage3_qconv8_weight", 
      "attrs": {
        "__dtype__": "0", 
        "__lr_mult__": "1.0", 
        "__shape__": "(64, 416, 3, 3)", 
        "__storage_type__": "0", 
        "__wd_mult__": "0.0"
      }, 
      "inputs": []
    }, 
    {
      "op": "det_sign", 
      "name": "stage3_qconv8_det_sign0", 
      "inputs": [[258, 0, 0]]
    }, 
    {
      "op": "Convolution", 
      "name": "stage3_qconv8_fwd", 
      "attrs": {
        "dilate": "(1, 1)", 
        "kernel": "(3, 3)", 
        "layout": "NCHW", 
        "no_bias": "True", 
        "num_filter": "64", 
        "num_group": "1", 
        "pad": "(0, 0)", 
        "stride": "(1, 1)"
      }, 
      "inputs": [[257, 0, 0], [259, 0, 0]]
    }, 
    {
      "op": "_plus_scalar", 
      "name": "stage3_qconv8__plusscalar0", 
      "attrs": {"scalar": "3744"}, 
      "inputs": [[260, 0, 0]]
    }, 
    {
      "op": "_div_scalar", 
      "name": "stage3_qconv8__divscalar0", 
      "attrs": {"scalar": "2"}, 
      "inputs": [[261, 0, 0]]
    }, 
    {
      "op": "elemwise_add", 
      "name": "hybridsequential6__plus4", 
      "inputs": [[249, 0, 0], [262, 0, 0]]
    }, 
    {
      "op": "Concat", 
      "name": "hybridsequential6_concat4", 
      "attrs": {
        "dim": "1", 
        "num_args": "2"
      }, 
      "inputs": [[248, 0, 0], [263, 0, 0]]
    }, 
    {
      "op": "null", 
      "name": "stage3_batchnorm10_gamma", 
      "attrs": {
        "__dtype__": "0", 
        "__init__": "ones", 
        "__lr_mult__": "1.0", 
        "__shape__": "(0,)", 
        "__storage_type__": "0", 
        "__wd_mult__": "1.0"
      }, 
      "inputs": []
    }, 
    {
      "op": "null", 
      "name": "stage3_batchnorm10_beta", 
      "attrs": {
        "__dtype__": "0", 
        "__init__": "zeros", 
        "__lr_mult__": "1.0", 
        "__shape__": "(0,)", 
        "__storage_type__": "0", 
        "__wd_mult__": "1.0"
      }, 
      "inputs": []
    }, 
    {
      "op": "null", 
      "name": "stage3_batchnorm10_running_mean", 
      "attrs": {
        "__dtype__": "0", 
        "__init__": "zeros", 
        "__lr_mult__": "1.0", 
        "__shape__": "(0,)", 
        "__storage_type__": "0", 
        "__wd_mult__": "1.0"
      }, 
      "inputs": []
    }, 
    {
      "op": "null", 
      "name": "stage3_batchnorm10_running_var", 
      "attrs": {
        "__dtype__": "0", 
        "__init__": "ones", 
        "__lr_mult__": "1.0", 
        "__shape__": "(0,)", 
        "__storage_type__": "0", 
        "__wd_mult__": "1.0"
      }, 
      "inputs": []
    }, 
    {
      "op": "BatchNorm", 
      "name": "stage3_batchnorm10_fwd", 
      "attrs": {
        "axis": "1", 
        "eps": "1e-05", 
        "fix_gamma": "False", 
        "momentum": "0.9", 
        "use_global_stats": "False"
      }, 
      "inputs": [[264, 0, 0], [265, 0, 0], [266, 0, 0], [267, 0, 7], [268, 0, 7]]
    }, 
    {
      "op": "_contrib_gradcancel", 
      "name": "stage3_qactivation10_gradcancel0", 
      "attrs": {"threshold": "1.0"}, 
      "inputs": [[269, 0, 0]]
    }, 
    {
      "op": "det_sign", 
      "name": "stage3_qactivation10_det_sign0", 
      "inputs": [[270, 0, 0]]
    }, 
    {
      "op": "Pad", 
      "name": "stage3_qconv10_pad0", 
      "attrs": {
        "constant_value": "-1", 
        "mode": "constant", 
        "pad_width": "[0, 0, 0, 0, 1, 1, 1, 1]"
      }, 
      "inputs": [[271, 0, 0]]
    }, 
    {
      "op": "null", 
      "name": "stage3_qconv10_weight", 
      "attrs": {
        "__dtype__": "0", 
        "__lr_mult__": "1.0", 
        "__shape__": "(64, 0, 3, 3)", 
        "__storage_type__": "0", 
        "__wd_mult__": "0.0"
      }, 
      "inputs": []
    }, 
    {
      "op": "det_sign", 
      "name": "stage3_qconv10_det_sign0", 
      "inputs": [[273, 0, 0]]
    }, 
    {
      "op": "Convolution", 
      "name": "stage3_qconv10_fwd", 
      "attrs": {
        "dilate": "(1, 1)", 
        "kernel": "(3, 3)", 
        "layout": "NCHW", 
        "no_bias": "True", 
        "num_filter": "64", 
        "num_group": "1", 
        "pad": "(0, 0)", 
        "stride": "(1, 1)"
      }, 
      "inputs": [[272, 0, 0], [274, 0, 0]]
    }, 
    {
      "op": "_plus_scalar", 
      "name": "stage3_qconv10__plusscalar0", 
      "attrs": {"scalar": "3744"}, 
      "inputs": [[275, 0, 0]]
    }, 
    {
      "op": "_div_scalar", 
      "name": "stage3_qconv10__divscalar0", 
      "attrs": {"scalar": "2"}, 
      "inputs": [[276, 0, 0]]
    }, 
    {
      "op": "Concat", 
      "name": "stage3_denseblockenas7_concat0", 
      "attrs": {
        "dim": "1", 
        "num_args": "2"
      }, 
      "inputs": [[264, 0, 0], [277, 0, 0]]
    }, 
    {
      "op": "null", 
      "name": "batchnorm2_gamma", 
      "attrs": {
        "__dtype__": "0", 
        "__init__": "ones", 
        "__lr_mult__": "1.0", 
        "__shape__": "(0,)", 
        "__storage_type__": "0", 
        "__wd_mult__": "1.0"
      }, 
      "inputs": []
    }, 
    {
      "op": "null", 
      "name": "batchnorm2_beta", 
      "attrs": {
        "__dtype__": "0", 
        "__init__": "zeros", 
        "__lr_mult__": "1.0", 
        "__shape__": "(0,)", 
        "__storage_type__": "0", 
        "__wd_mult__": "1.0"
      }, 
      "inputs": []
    }, 
    {
      "op": "null", 
      "name": "batchnorm2_running_mean", 
      "attrs": {
        "__dtype__": "0", 
        "__init__": "zeros", 
        "__lr_mult__": "1.0", 
        "__shape__": "(0,)", 
        "__storage_type__": "0", 
        "__wd_mult__": "1.0"
      }, 
      "inputs": []
    }, 
    {
      "op": "null", 
      "name": "batchnorm2_running_var", 
      "attrs": {
        "__dtype__": "0", 
        "__init__": "ones", 
        "__lr_mult__": "1.0", 
        "__shape__": "(0,)", 
        "__storage_type__": "0", 
        "__wd_mult__": "1.0"
      }, 
      "inputs": []
    }, 
    {
      "op": "BatchNorm", 
      "name": "batchnorm2_fwd", 
      "attrs": {
        "axis": "1", 
        "eps": "1e-05", 
        "fix_gamma": "False", 
        "momentum": "0.9", 
        "use_global_stats": "False"
      }, 
      "inputs": [[278, 0, 0], [279, 0, 0], [280, 0, 0], [281, 0, 7], [282, 0, 7]]
    }, 
    {
      "op": "Pooling", 
      "name": "pool2_fwd", 
      "attrs": {
        "global_pool": "False", 
        "kernel": "(2, 2)", 
        "pad": "(0, 0)", 
        "pool_type": "max", 
        "pooling_convention": "valid", 
        "stride": "(2, 2)"
      }, 
      "inputs": [[283, 0, 0]]
    }, 
    {
      "op": "Activation", 
      "name": "relu2_fwd", 
      "attrs": {"act_type": "relu"}, 
      "inputs": [[284, 0, 0]]
    }, 
    {
      "op": "null", 
      "name": "conv3_weight", 
      "attrs": {
        "__dtype__": "0", 
        "__lr_mult__": "1.0", 
        "__shape__": "(256, 0, 1, 1)", 
        "__storage_type__": "0", 
        "__wd_mult__": "1.0"
      }, 
      "inputs": []
    }, 
    {
      "op": "Convolution", 
      "name": "conv3_fwd", 
      "attrs": {
        "dilate": "(1, 1)", 
        "kernel": "(1, 1)", 
        "layout": "NCHW", 
        "no_bias": "True", 
        "num_filter": "256", 
        "num_group": "1", 
        "pad": "(0, 0)", 
        "stride": "(1, 1)"
      }, 
      "inputs": [[285, 0, 0], [286, 0, 0]]
    }, 
    {
      "op": "null", 
      "name": "stage4_batchnorm0_gamma", 
      "attrs": {
        "__dtype__": "0", 
        "__init__": "ones", 
        "__lr_mult__": "1.0", 
        "__shape__": "(0,)", 
        "__storage_type__": "0", 
        "__wd_mult__": "1.0"
      }, 
      "inputs": []
    }, 
    {
      "op": "null", 
      "name": "stage4_batchnorm0_beta", 
      "attrs": {
        "__dtype__": "0", 
        "__init__": "zeros", 
        "__lr_mult__": "1.0", 
        "__shape__": "(0,)", 
        "__storage_type__": "0", 
        "__wd_mult__": "1.0"
      }, 
      "inputs": []
    }, 
    {
      "op": "null", 
      "name": "stage4_batchnorm0_running_mean", 
      "attrs": {
        "__dtype__": "0", 
        "__init__": "zeros", 
        "__lr_mult__": "1.0", 
        "__shape__": "(0,)", 
        "__storage_type__": "0", 
        "__wd_mult__": "1.0"
      }, 
      "inputs": []
    }, 
    {
      "op": "null", 
      "name": "stage4_batchnorm0_running_var", 
      "attrs": {
        "__dtype__": "0", 
        "__init__": "ones", 
        "__lr_mult__": "1.0", 
        "__shape__": "(0,)", 
        "__storage_type__": "0", 
        "__wd_mult__": "1.0"
      }, 
      "inputs": []
    }, 
    {
      "op": "BatchNorm", 
      "name": "stage4_batchnorm0_fwd", 
      "attrs": {
        "axis": "1", 
        "eps": "1e-05", 
        "fix_gamma": "False", 
        "momentum": "0.9", 
        "use_global_stats": "False"
      }, 
      "inputs": [[287, 0, 0], [288, 0, 0], [289, 0, 0], [290, 0, 7], [291, 0, 7]]
    }, 
    {
      "op": "_contrib_gradcancel", 
      "name": "stage4_qactivation0_gradcancel0", 
      "attrs": {"threshold": "1.0"}, 
      "inputs": [[292, 0, 0]]
    }, 
    {
      "op": "det_sign", 
      "name": "stage4_qactivation0_det_sign0", 
      "inputs": [[293, 0, 0]]
    }, 
    {
      "op": "null", 
      "name": "stage4_qconv0_weight", 
      "attrs": {
        "__dtype__": "0", 
        "__lr_mult__": "1.0", 
        "__shape__": "(64, 0, 1, 1)", 
        "__storage_type__": "0", 
        "__wd_mult__": "0.0"
      }, 
      "inputs": []
    }, 
    {
      "op": "det_sign", 
      "name": "stage4_qconv0_det_sign0", 
      "inputs": [[295, 0, 0]]
    }, 
    {
      "op": "Convolution", 
      "name": "stage4_qconv0_fwd", 
      "attrs": {
        "dilate": "(1, 1)", 
        "kernel": "(1, 1)", 
        "layout": "NCHW", 
        "no_bias": "True", 
        "num_filter": "64", 
        "num_group": "1", 
        "pad": "(0, 0)", 
        "stride": "(1, 1)"
      }, 
      "inputs": [[294, 0, 0], [296, 0, 0]]
    }, 
    {
      "op": "_plus_scalar", 
      "name": "stage4_qconv0__plusscalar0", 
      "attrs": {"scalar": "256"}, 
      "inputs": [[297, 0, 0]]
    }, 
    {
      "op": "_div_scalar", 
      "name": "stage4_qconv0__divscalar0", 
      "attrs": {"scalar": "2"}, 
      "inputs": [[298, 0, 0]]
    }, 
    {
      "op": "Concat", 
      "name": "stage4_denseblockenas0_concat0", 
      "attrs": {
        "dim": "1", 
        "num_args": "2"
      }, 
      "inputs": [[287, 0, 0], [299, 0, 0]]
    }, 
    {
      "op": "null", 
      "name": "stage4_batchnorm3_gamma", 
      "attrs": {
        "__dtype__": "0", 
        "__init__": "ones", 
        "__lr_mult__": "1.0", 
        "__shape__": "(0,)", 
        "__storage_type__": "0", 
        "__wd_mult__": "1.0"
      }, 
      "inputs": []
    }, 
    {
      "op": "null", 
      "name": "stage4_batchnorm3_beta", 
      "attrs": {
        "__dtype__": "0", 
        "__init__": "zeros", 
        "__lr_mult__": "1.0", 
        "__shape__": "(0,)", 
        "__storage_type__": "0", 
        "__wd_mult__": "1.0"
      }, 
      "inputs": []
    }, 
    {
      "op": "null", 
      "name": "stage4_batchnorm3_running_mean", 
      "attrs": {
        "__dtype__": "0", 
        "__init__": "zeros", 
        "__lr_mult__": "1.0", 
        "__shape__": "(0,)", 
        "__storage_type__": "0", 
        "__wd_mult__": "1.0"
      }, 
      "inputs": []
    }, 
    {
      "op": "null", 
      "name": "stage4_batchnorm3_running_var", 
      "attrs": {
        "__dtype__": "0", 
        "__init__": "ones", 
        "__lr_mult__": "1.0", 
        "__shape__": "(0,)", 
        "__storage_type__": "0", 
        "__wd_mult__": "1.0"
      }, 
      "inputs": []
    }, 
    {
      "op": "BatchNorm", 
      "name": "stage4_batchnorm3_fwd", 
      "attrs": {
        "axis": "1", 
        "eps": "1e-05", 
        "fix_gamma": "False", 
        "momentum": "0.9", 
        "use_global_stats": "False"
      }, 
      "inputs": [[300, 0, 0], [301, 0, 0], [302, 0, 0], [303, 0, 7], [304, 0, 7]]
    }, 
    {
      "op": "_contrib_gradcancel", 
      "name": "stage4_qactivation3_gradcancel0", 
      "attrs": {"threshold": "1.0"}, 
      "inputs": [[305, 0, 0]]
    }, 
    {
      "op": "det_sign", 
      "name": "stage4_qactivation3_det_sign0", 
      "inputs": [[306, 0, 0]]
    }, 
    {
      "op": "null", 
      "name": "stage4_qconv3_weight", 
      "attrs": {
        "__dtype__": "0", 
        "__lr_mult__": "1.0", 
        "__shape__": "(64, 0, 1, 1)", 
        "__storage_type__": "0", 
        "__wd_mult__": "0.0"
      }, 
      "inputs": []
    }, 
    {
      "op": "det_sign", 
      "name": "stage4_qconv3_det_sign0", 
      "inputs": [[308, 0, 0]]
    }, 
    {
      "op": "Convolution", 
      "name": "stage4_qconv3_fwd", 
      "attrs": {
        "dilate": "(1, 1)", 
        "kernel": "(1, 1)", 
        "layout": "NCHW", 
        "no_bias": "True", 
        "num_filter": "64", 
        "num_group": "1", 
        "pad": "(0, 0)", 
        "stride": "(1, 1)"
      }, 
      "inputs": [[307, 0, 0], [309, 0, 0]]
    }, 
    {
      "op": "_plus_scalar", 
      "name": "stage4_qconv3__plusscalar0", 
      "attrs": {"scalar": "320"}, 
      "inputs": [[310, 0, 0]]
    }, 
    {
      "op": "_div_scalar", 
      "name": "stage4_qconv3__divscalar0", 
      "attrs": {"scalar": "2"}, 
      "inputs": [[311, 0, 0]]
    }, 
    {
      "op": "Concat", 
      "name": "stage4_denseblockenas2_concat0", 
      "attrs": {
        "dim": "1", 
        "num_args": "2"
      }, 
      "inputs": [[300, 0, 0], [312, 0, 0]]
    }, 
    {
      "op": "null", 
      "name": "stage4_batchnorm6_gamma", 
      "attrs": {
        "__dtype__": "0", 
        "__init__": "ones", 
        "__lr_mult__": "1.0", 
        "__shape__": "(0,)", 
        "__storage_type__": "0", 
        "__wd_mult__": "1.0"
      }, 
      "inputs": []
    }, 
    {
      "op": "null", 
      "name": "stage4_batchnorm6_beta", 
      "attrs": {
        "__dtype__": "0", 
        "__init__": "zeros", 
        "__lr_mult__": "1.0", 
        "__shape__": "(0,)", 
        "__storage_type__": "0", 
        "__wd_mult__": "1.0"
      }, 
      "inputs": []
    }, 
    {
      "op": "null", 
      "name": "stage4_batchnorm6_running_mean", 
      "attrs": {
        "__dtype__": "0", 
        "__init__": "zeros", 
        "__lr_mult__": "1.0", 
        "__shape__": "(0,)", 
        "__storage_type__": "0", 
        "__wd_mult__": "1.0"
      }, 
      "inputs": []
    }, 
    {
      "op": "null", 
      "name": "stage4_batchnorm6_running_var", 
      "attrs": {
        "__dtype__": "0", 
        "__init__": "ones", 
        "__lr_mult__": "1.0", 
        "__shape__": "(0,)", 
        "__storage_type__": "0", 
        "__wd_mult__": "1.0"
      }, 
      "inputs": []
    }, 
    {
      "op": "BatchNorm", 
      "name": "stage4_batchnorm6_fwd", 
      "attrs": {
        "axis": "1", 
        "eps": "1e-05", 
        "fix_gamma": "False", 
        "momentum": "0.9", 
        "use_global_stats": "False"
      }, 
      "inputs": [[313, 0, 0], [314, 0, 0], [315, 0, 0], [316, 0, 7], [317, 0, 7]]
    }, 
    {
      "op": "_contrib_gradcancel", 
      "name": "stage4_qactivation6_gradcancel0", 
      "attrs": {"threshold": "1.0"}, 
      "inputs": [[318, 0, 0]]
    }, 
    {
      "op": "det_sign", 
      "name": "stage4_qactivation6_det_sign0", 
      "inputs": [[319, 0, 0]]
    }, 
    {
      "op": "null", 
      "name": "stage4_qconv6_weight", 
      "attrs": {
        "__dtype__": "0", 
        "__lr_mult__": "1.0", 
        "__shape__": "(64, 0, 1, 1)", 
        "__storage_type__": "0", 
        "__wd_mult__": "0.0"
      }, 
      "inputs": []
    }, 
    {
      "op": "det_sign", 
      "name": "stage4_qconv6_det_sign0", 
      "inputs": [[321, 0, 0]]
    }, 
    {
      "op": "Convolution", 
      "name": "stage4_qconv6_fwd", 
      "attrs": {
        "dilate": "(1, 1)", 
        "kernel": "(1, 1)", 
        "layout": "NCHW", 
        "no_bias": "True", 
        "num_filter": "64", 
        "num_group": "1", 
        "pad": "(0, 0)", 
        "stride": "(1, 1)"
      }, 
      "inputs": [[320, 0, 0], [322, 0, 0]]
    }, 
    {
      "op": "_plus_scalar", 
      "name": "stage4_qconv6__plusscalar0", 
      "attrs": {"scalar": "384"}, 
      "inputs": [[323, 0, 0]]
    }, 
    {
      "op": "_div_scalar", 
      "name": "stage4_qconv6__divscalar0", 
      "attrs": {"scalar": "2"}, 
      "inputs": [[324, 0, 0]]
    }, 
    {
      "op": "Concat", 
      "name": "stage4_denseblockenas4_concat0", 
      "attrs": {
        "dim": "1", 
        "num_args": "2"
      }, 
      "inputs": [[313, 0, 0], [325, 0, 0]]
    }, 
    {
      "op": "slice_axis", 
      "name": "hybridsequential6_slice_axis10", 
      "attrs": {
        "axis": "1", 
        "begin": "0", 
        "end": "384"
      }, 
      "inputs": [[326, 0, 0]]
    }, 
    {
      "op": "slice_axis", 
      "name": "hybridsequential6_slice_axis11", 
      "attrs": {
        "axis": "1", 
        "begin": "384", 
        "end": "448"
      }, 
      "inputs": [[326, 0, 0]]
    }, 
    {
      "op": "null", 
      "name": "stage4_batchnorm8_gamma", 
      "attrs": {
        "__dtype__": "0", 
        "__init__": "ones", 
        "__lr_mult__": "1.0", 
        "__shape__": "(0,)", 
        "__storage_type__": "0", 
        "__wd_mult__": "1.0"
      }, 
      "inputs": []
    }, 
    {
      "op": "null", 
      "name": "stage4_batchnorm8_beta", 
      "attrs": {
        "__dtype__": "0", 
        "__init__": "zeros", 
        "__lr_mult__": "1.0", 
        "__shape__": "(0,)", 
        "__storage_type__": "0", 
        "__wd_mult__": "1.0"
      }, 
      "inputs": []
    }, 
    {
      "op": "null", 
      "name": "stage4_batchnorm8_running_mean", 
      "attrs": {
        "__dtype__": "0", 
        "__init__": "zeros", 
        "__lr_mult__": "1.0", 
        "__shape__": "(0,)", 
        "__storage_type__": "0", 
        "__wd_mult__": "1.0"
      }, 
      "inputs": []
    }, 
    {
      "op": "null", 
      "name": "stage4_batchnorm8_running_var", 
      "attrs": {
        "__dtype__": "0", 
        "__init__": "ones", 
        "__lr_mult__": "1.0", 
        "__shape__": "(0,)", 
        "__storage_type__": "0", 
        "__wd_mult__": "1.0"
      }, 
      "inputs": []
    }, 
    {
      "op": "BatchNorm", 
      "name": "stage4_batchnorm8_fwd", 
      "attrs": {
        "axis": "1", 
        "eps": "1e-05", 
        "fix_gamma": "False", 
        "momentum": "0.9", 
        "use_global_stats": "False"
      }, 
      "inputs": [[326, 0, 0], [329, 0, 0], [330, 0, 0], [331, 0, 7], [332, 0, 7]]
    }, 
    {
      "op": "_contrib_gradcancel", 
      "name": "stage4_qactivation8_gradcancel0", 
      "attrs": {"threshold": "1.0"}, 
      "inputs": [[333, 0, 0]]
    }, 
    {
      "op": "det_sign", 
      "name": "stage4_qactivation8_det_sign0", 
      "inputs": [[334, 0, 0]]
    }, 
    {
      "op": "Pad", 
      "name": "stage4_qconv8_pad0", 
      "attrs": {
        "constant_value": "-1", 
        "mode": "constant", 
        "pad_width": "[0, 0, 0, 0, 1, 1, 1, 1]"
      }, 
      "inputs": [[335, 0, 0]]
    }, 
    {
      "op": "null", 
      "name": "stage4_qconv8_weight", 
      "attrs": {
        "__dtype__": "0", 
        "__lr_mult__": "1.0", 
        "__shape__": "(64, 448, 3, 3)", 
        "__storage_type__": "0", 
        "__wd_mult__": "0.0"
      }, 
      "inputs": []
    }, 
    {
      "op": "det_sign", 
      "name": "stage4_qconv8_det_sign0", 
      "inputs": [[337, 0, 0]]
    }, 
    {
      "op": "Convolution", 
      "name": "stage4_qconv8_fwd", 
      "attrs": {
        "dilate": "(1, 1)", 
        "kernel": "(3, 3)", 
        "layout": "NCHW", 
        "no_bias": "True", 
        "num_filter": "64", 
        "num_group": "1", 
        "pad": "(0, 0)", 
        "stride": "(1, 1)"
      }, 
      "inputs": [[336, 0, 0], [338, 0, 0]]
    }, 
    {
      "op": "_plus_scalar", 
      "name": "stage4_qconv8__plusscalar0", 
      "attrs": {"scalar": "4032"}, 
      "inputs": [[339, 0, 0]]
    }, 
    {
      "op": "_div_scalar", 
      "name": "stage4_qconv8__divscalar0", 
      "attrs": {"scalar": "2"}, 
      "inputs": [[340, 0, 0]]
    }, 
    {
      "op": "elemwise_add", 
      "name": "hybridsequential6__plus5", 
      "inputs": [[328, 0, 0], [341, 0, 0]]
    }, 
    {
      "op": "Concat", 
      "name": "hybridsequential6_concat5", 
      "attrs": {
        "dim": "1", 
        "num_args": "2"
      }, 
      "inputs": [[327, 0, 0], [342, 0, 0]]
    }, 
    {
      "op": "null", 
      "name": "stage4_batchnorm9_gamma", 
      "attrs": {
        "__dtype__": "0", 
        "__init__": "ones", 
        "__lr_mult__": "1.0", 
        "__shape__": "(0,)", 
        "__storage_type__": "0", 
        "__wd_mult__": "1.0"
      }, 
      "inputs": []
    }, 
    {
      "op": "null", 
      "name": "stage4_batchnorm9_beta", 
      "attrs": {
        "__dtype__": "0", 
        "__init__": "zeros", 
        "__lr_mult__": "1.0", 
        "__shape__": "(0,)", 
        "__storage_type__": "0", 
        "__wd_mult__": "1.0"
      }, 
      "inputs": []
    }, 
    {
      "op": "null", 
      "name": "stage4_batchnorm9_running_mean", 
      "attrs": {
        "__dtype__": "0", 
        "__init__": "zeros", 
        "__lr_mult__": "1.0", 
        "__shape__": "(0,)", 
        "__storage_type__": "0", 
        "__wd_mult__": "1.0"
      }, 
      "inputs": []
    }, 
    {
      "op": "null", 
      "name": "stage4_batchnorm9_running_var", 
      "attrs": {
        "__dtype__": "0", 
        "__init__": "ones", 
        "__lr_mult__": "1.0", 
        "__shape__": "(0,)", 
        "__storage_type__": "0", 
        "__wd_mult__": "1.0"
      }, 
      "inputs": []
    }, 
    {
      "op": "BatchNorm", 
      "name": "stage4_batchnorm9_fwd", 
      "attrs": {
        "axis": "1", 
        "eps": "1e-05", 
        "fix_gamma": "False", 
        "momentum": "0.9", 
        "use_global_stats": "False"
      }, 
      "inputs": [[343, 0, 0], [344, 0, 0], [345, 0, 0], [346, 0, 7], [347, 0, 7]]
    }, 
    {
      "op": "_contrib_gradcancel", 
      "name": "stage4_qactivation9_gradcancel0", 
      "attrs": {"threshold": "1.0"}, 
      "inputs": [[348, 0, 0]]
    }, 
    {
      "op": "det_sign", 
      "name": "stage4_qactivation9_det_sign0", 
      "inputs": [[349, 0, 0]]
    }, 
    {
      "op": "null", 
      "name": "stage4_qconv9_weight", 
      "attrs": {
        "__dtype__": "0", 
        "__lr_mult__": "1.0", 
        "__shape__": "(64, 0, 1, 1)", 
        "__storage_type__": "0", 
        "__wd_mult__": "0.0"
      }, 
      "inputs": []
    }, 
    {
      "op": "det_sign", 
      "name": "stage4_qconv9_det_sign0", 
      "inputs": [[351, 0, 0]]
    }, 
    {
      "op": "Convolution", 
      "name": "stage4_qconv9_fwd", 
      "attrs": {
        "dilate": "(1, 1)", 
        "kernel": "(1, 1)", 
        "layout": "NCHW", 
        "no_bias": "True", 
        "num_filter": "64", 
        "num_group": "1", 
        "pad": "(0, 0)", 
        "stride": "(1, 1)"
      }, 
      "inputs": [[350, 0, 0], [352, 0, 0]]
    }, 
    {
      "op": "_plus_scalar", 
      "name": "stage4_qconv9__plusscalar0", 
      "attrs": {"scalar": "448"}, 
      "inputs": [[353, 0, 0]]
    }, 
    {
      "op": "_div_scalar", 
      "name": "stage4_qconv9__divscalar0", 
      "attrs": {"scalar": "2"}, 
      "inputs": [[354, 0, 0]]
    }, 
    {
      "op": "Concat", 
      "name": "stage4_denseblockenas6_concat0", 
      "attrs": {
        "dim": "1", 
        "num_args": "2"
      }, 
      "inputs": [[343, 0, 0], [355, 0, 0]]
    }, 
    {
      "op": "slice_axis", 
      "name": "hybridsequential6_slice_axis12", 
      "attrs": {
        "axis": "1", 
        "begin": "0", 
        "end": "448"
      }, 
      "inputs": [[356, 0, 0]]
    }, 
    {
      "op": "slice_axis", 
      "name": "hybridsequential6_slice_axis13", 
      "attrs": {
        "axis": "1", 
        "begin": "448", 
        "end": "512"
      }, 
      "inputs": [[356, 0, 0]]
    }, 
    {
      "op": "null", 
      "name": "stage4_batchnorm11_gamma", 
      "attrs": {
        "__dtype__": "0", 
        "__init__": "ones", 
        "__lr_mult__": "1.0", 
        "__shape__": "(0,)", 
        "__storage_type__": "0", 
        "__wd_mult__": "1.0"
      }, 
      "inputs": []
    }, 
    {
      "op": "null", 
      "name": "stage4_batchnorm11_beta", 
      "attrs": {
        "__dtype__": "0", 
        "__init__": "zeros", 
        "__lr_mult__": "1.0", 
        "__shape__": "(0,)", 
        "__storage_type__": "0", 
        "__wd_mult__": "1.0"
      }, 
      "inputs": []
    }, 
    {
      "op": "null", 
      "name": "stage4_batchnorm11_running_mean", 
      "attrs": {
        "__dtype__": "0", 
        "__init__": "zeros", 
        "__lr_mult__": "1.0", 
        "__shape__": "(0,)", 
        "__storage_type__": "0", 
        "__wd_mult__": "1.0"
      }, 
      "inputs": []
    }, 
    {
      "op": "null", 
      "name": "stage4_batchnorm11_running_var", 
      "attrs": {
        "__dtype__": "0", 
        "__init__": "ones", 
        "__lr_mult__": "1.0", 
        "__shape__": "(0,)", 
        "__storage_type__": "0", 
        "__wd_mult__": "1.0"
      }, 
      "inputs": []
    }, 
    {
      "op": "BatchNorm", 
      "name": "stage4_batchnorm11_fwd", 
      "attrs": {
        "axis": "1", 
        "eps": "1e-05", 
        "fix_gamma": "False", 
        "momentum": "0.9", 
        "use_global_stats": "False"
      }, 
      "inputs": [[356, 0, 0], [359, 0, 0], [360, 0, 0], [361, 0, 7], [362, 0, 7]]
    }, 
    {
      "op": "_contrib_gradcancel", 
      "name": "stage4_qactivation11_gradcancel0", 
      "attrs": {"threshold": "1.0"}, 
      "inputs": [[363, 0, 0]]
    }, 
    {
      "op": "det_sign", 
      "name": "stage4_qactivation11_det_sign0", 
      "inputs": [[364, 0, 0]]
    }, 
    {
      "op": "Pad", 
      "name": "stage4_qconv11_pad0", 
      "attrs": {
        "constant_value": "-1", 
        "mode": "constant", 
        "pad_width": "[0, 0, 0, 0, 1, 1, 1, 1]"
      }, 
      "inputs": [[365, 0, 0]]
    }, 
    {
      "op": "null", 
      "name": "stage4_qconv11_weight", 
      "attrs": {
        "__dtype__": "0", 
        "__lr_mult__": "1.0", 
        "__shape__": "(64, 512, 3, 3)", 
        "__storage_type__": "0", 
        "__wd_mult__": "0.0"
      }, 
      "inputs": []
    }, 
    {
      "op": "det_sign", 
      "name": "stage4_qconv11_det_sign0", 
      "inputs": [[367, 0, 0]]
    }, 
    {
      "op": "Convolution", 
      "name": "stage4_qconv11_fwd", 
      "attrs": {
        "dilate": "(1, 1)", 
        "kernel": "(3, 3)", 
        "layout": "NCHW", 
        "no_bias": "True", 
        "num_filter": "64", 
        "num_group": "1", 
        "pad": "(0, 0)", 
        "stride": "(1, 1)"
      }, 
      "inputs": [[366, 0, 0], [368, 0, 0]]
    }, 
    {
      "op": "_plus_scalar", 
      "name": "stage4_qconv11__plusscalar0", 
      "attrs": {"scalar": "4608"}, 
      "inputs": [[369, 0, 0]]
    }, 
    {
      "op": "_div_scalar", 
      "name": "stage4_qconv11__divscalar0", 
      "attrs": {"scalar": "2"}, 
      "inputs": [[370, 0, 0]]
    }, 
    {
      "op": "elemwise_add", 
      "name": "hybridsequential6__plus6", 
      "inputs": [[358, 0, 0], [371, 0, 0]]
    }, 
    {
      "op": "Concat", 
      "name": "hybridsequential6_concat6", 
      "attrs": {
        "dim": "1", 
        "num_args": "2"
      }, 
      "inputs": [[357, 0, 0], [372, 0, 0]]
    }, 
    {
      "op": "null", 
      "name": "batchnorm3_gamma", 
      "attrs": {
        "__dtype__": "0", 
        "__init__": "ones", 
        "__lr_mult__": "1.0", 
        "__shape__": "(0,)", 
        "__storage_type__": "0", 
        "__wd_mult__": "1.0"
      }, 
      "inputs": []
    }, 
    {
      "op": "null", 
      "name": "batchnorm3_beta", 
      "attrs": {
        "__dtype__": "0", 
        "__init__": "zeros", 
        "__lr_mult__": "1.0", 
        "__shape__": "(0,)", 
        "__storage_type__": "0", 
        "__wd_mult__": "1.0"
      }, 
      "inputs": []
    }, 
    {
      "op": "null", 
      "name": "batchnorm3_running_mean", 
      "attrs": {
        "__dtype__": "0", 
        "__init__": "zeros", 
        "__lr_mult__": "1.0", 
        "__shape__": "(0,)", 
        "__storage_type__": "0", 
        "__wd_mult__": "1.0"
      }, 
      "inputs": []
    }, 
    {
      "op": "null", 
      "name": "batchnorm3_running_var", 
      "attrs": {
        "__dtype__": "0", 
        "__init__": "ones", 
        "__lr_mult__": "1.0", 
        "__shape__": "(0,)", 
        "__storage_type__": "0", 
        "__wd_mult__": "1.0"
      }, 
      "inputs": []
    }, 
    {
      "op": "BatchNorm", 
      "name": "batchnorm3_fwd", 
      "attrs": {
        "axis": "1", 
        "eps": "1e-05", 
        "fix_gamma": "False", 
        "momentum": "0.9", 
        "use_global_stats": "False"
      }, 
      "inputs": [[373, 0, 0], [374, 0, 0], [375, 0, 0], [376, 0, 7], [377, 0, 7]]
    }, 
    {
      "op": "Activation", 
      "name": "relu3_fwd", 
      "attrs": {"act_type": "relu"}, 
      "inputs": [[378, 0, 0]]
    }, 
    {
      "op": "Pooling", 
      "name": "pool3_fwd", 
      "attrs": {
        "count_include_pad": "True", 
        "global_pool": "False", 
        "kernel": "(4, 4)", 
        "pad": "(0, 0)", 
        "pool_type": "avg", 
        "pooling_convention": "valid", 
        "stride": "(4, 4)"
      }, 
      "inputs": [[379, 0, 0]]
    }, 
    {
      "op": "Flatten", 
      "name": "flatten0_flatten0", 
      "inputs": [[380, 0, 0]]
    }, 
    {
      "op": "null", 
      "name": "dense0_weight", 
      "attrs": {
        "__dtype__": "0", 
        "__lr_mult__": "1.0", 
        "__shape__": "(100, 0)", 
        "__storage_type__": "0", 
        "__wd_mult__": "1.0"
      }, 
      "inputs": []
    }, 
    {
      "op": "null", 
      "name": "dense0_bias", 
      "attrs": {
        "__dtype__": "0", 
        "__init__": "zeros", 
        "__lr_mult__": "1.0", 
        "__shape__": "(100,)", 
        "__storage_type__": "0", 
        "__wd_mult__": "1.0"
      }, 
      "inputs": []
    }, 
    {
      "op": "FullyConnected", 
      "name": "dense0_fwd", 
      "attrs": {
        "flatten": "True", 
        "no_bias": "False", 
        "num_hidden": "100"
      }, 
      "inputs": [[381, 0, 0], [382, 0, 0], [383, 0, 0]]
    }
  ], 
  "arg_nodes": [
    0, 
    1, 
    3, 
    4, 
    5, 
    6, 
    10, 
    18, 
    19, 
    20, 
    21, 
    26, 
    33, 
    34, 
    35, 
    36, 
    40, 
    48, 
    49, 
    50, 
    51, 
    56, 
    63, 
    64, 
    65, 
    66, 
    70, 
    76, 
    77, 
    78, 
    79, 
    84, 
    90, 
    91, 
    92, 
    93, 
    97, 
    99, 
    100, 
    101, 
    102, 
    106, 
    114, 
    115, 
    116, 
    117, 
    122, 
    129, 
    130, 
    131, 
    132, 
    136, 
    142, 
    143, 
    144, 
    145, 
    149, 
    155, 
    156, 
    157, 
    158, 
    163, 
    169, 
    170, 
    171, 
    172, 
    177, 
    183, 
    184, 
    185, 
    186, 
    190, 
    192, 
    193, 
    194, 
    195, 
    199, 
    207, 
    208, 
    209, 
    210, 
    215, 
    222, 
    223, 
    224, 
    225, 
    229, 
    235, 
    236, 
    237, 
    238, 
    242, 
    250, 
    251, 
    252, 
    253, 
    258, 
    265, 
    266, 
    267, 
    268, 
    273, 
    279, 
    280, 
    281, 
    282, 
    286, 
    288, 
    289, 
    290, 
    291, 
    295, 
    301, 
    302, 
    303, 
    304, 
    308, 
    314, 
    315, 
    316, 
    317, 
    321, 
    329, 
    330, 
    331, 
    332, 
    337, 
    344, 
    345, 
    346, 
    347, 
    351, 
    359, 
    360, 
    361, 
    362, 
    367, 
    374, 
    375, 
    376, 
    377, 
    382, 
    383
  ], 
  "node_row_ptr": [
    0, 
    1, 
    2, 
    3, 
    4, 
    5, 
    6, 
    7, 
    10, 
    11, 
    12, 
    13, 
    14, 
    15, 
    16, 
    17, 
    18, 
    19, 
    20, 
    21, 
    22, 
    23, 
    24, 
    27, 
    28, 
    29, 
    30, 
    31, 
    32, 
    33, 
    34, 
    35, 
    36, 
    37, 
    38, 
    39, 
    40, 
    41, 
    44, 
    45, 
    46, 
    47, 
    48, 
    49, 
    50, 
    51, 
    52, 
    53, 
    54, 
    55, 
    56, 
    57, 
    58, 
    61, 
    62, 
    63, 
    64, 
    65, 
    66, 
    67, 
    68, 
    69, 
    70, 
    71, 
    72, 
    73, 
    74, 
    75, 
    78, 
    79, 
    80, 
    81, 
    82, 
    83, 
    84, 
    85, 
    86, 
    87, 
    88, 
    89, 
    90, 
    93, 
    94, 
    95, 
    96, 
    97, 
    98, 
    99, 
    100, 
    101, 
    102, 
    103, 
    104, 
    105, 
    106, 
    109, 
    110, 
    111, 
    112, 
    113, 
    114, 
    115, 
    116, 
    117, 
    120, 
    121, 
    122, 
    123, 
    124, 
    125, 
    126, 
    127, 
    128, 
    129, 
    130, 
    131, 
    132, 
    133, 
    134, 
    137, 
    138, 
    139, 
    140, 
    141, 
    142, 
    143, 
    144, 
    145, 
    146, 
    147, 
    148, 
    149, 
    150, 
    151, 
    154, 
    155, 
    156, 
    157, 
    158, 
    159, 
    160, 
    161, 
    162, 
    163, 
    164, 
    165, 
    166, 
    169, 
    170, 
    171, 
    172, 
    173, 
    174, 
    175, 
    176, 
    177, 
    178, 
    179, 
    180, 
    181, 
    184, 
    185, 
    186, 
    187, 
    188, 
    189, 
    190, 
    191, 
    192, 
    193, 
    194, 
    195, 
    196, 
    197, 
    200, 
    201, 
    202, 
    203, 
    204, 
    205, 
    206, 
    207, 
    208, 
    209, 
    210, 
    211, 
    212, 
    213, 
    216, 
    217, 
    218, 
    219, 
    220, 
    221, 
    222, 
    223, 
    224, 
    227, 
    228, 
    229, 
    230, 
    231, 
    232, 
    233, 
    234, 
    235, 
    236, 
    237, 
    238, 
    239, 
    240, 
    241, 
    244, 
    245, 
    246, 
    247, 
    248, 
    249, 
    250, 
    251, 
    252, 
    253, 
    254, 
    255, 
    256, 
    257, 
    258, 
    261, 
    262, 
    263, 
    264, 
    265, 
    266, 
    267, 
    268, 
    269, 
    270, 
    271, 
    272, 
    273, 
    276, 
    277, 
    278, 
    279, 
    280, 
    281, 
    282, 
    283, 
    284, 
    285, 
    286, 
    287, 
    288, 
    289, 
    290, 
    293, 
    294, 
    295, 
    296, 
    297, 
    298, 
    299, 
    300, 
    301, 
    302, 
    303, 
    304, 
    305, 
    306, 
    307, 
    310, 
    311, 
    312, 
    313, 
    314, 
    315, 
    316, 
    317, 
    318, 
    319, 
    320, 
    321, 
    322, 
    323, 
    326, 
    327, 
    328, 
    329, 
    330, 
    331, 
    332, 
    333, 
    334, 
    337, 
    338, 
    339, 
    340, 
    341, 
    342, 
    343, 
    344, 
    345, 
    346, 
    347, 
    348, 
    349, 
    352, 
    353, 
    354, 
    355, 
    356, 
    357, 
    358, 
    359, 
    360, 
    361, 
    362, 
    363, 
    364, 
    367, 
    368, 
    369, 
    370, 
    371, 
    372, 
    373, 
    374, 
    375, 
    376, 
    377, 
    378, 
    379, 
    380, 
    381, 
    384, 
    385, 
    386, 
    387, 
    388, 
    389, 
    390, 
    391, 
    392, 
    393, 
    394, 
    395, 
    396, 
    397, 
    398, 
    401, 
    402, 
    403, 
    404, 
    405, 
    406, 
    407, 
    408, 
    409, 
    410, 
    411, 
    412, 
    413, 
    414, 
    415, 
    418, 
    419, 
    420, 
    421, 
    422, 
    423, 
    424, 
    425, 
    426, 
    427, 
    428, 
    429, 
    430, 
    431, 
    432, 
    435, 
    436, 
    437, 
    438, 
    439, 
    440, 
    441
  ], 
  "heads": [[384, 0, 0]], 
  "attrs": {"mxnet_version": ["int", 10401]}
}